mujoco_env/vector/032/pytorch_models/TD3_HalfCheetah-v3_42-31_actor.pth (torch, 519525 bytes, 6 tensors)

layer_1.weight f4 [400, 17]
00000000: 1e25 bd3d 8f3d 273f d8e9 c0be f2fc a43d
00000010: 59e2 8bbe 74c2 07bf 2eff e2bb 1616 453e
00000020: f2a2 0d3f 80cc a3be 8a3a 763e 7f65 33bd
00000030: 5d90 05bd c8ab babd 73d0 97bb 8779 553d
00000040: 6ce8 9abb c021 403f a28b 32bf 1913 17be
00000050: 2d37 0cbf 18cf 703d 944c 363e a758 dabd
00000060: df02 86be 8d31 90bc cb9a dd3e e359 ec3d
00000070: 8ed2 a03d eaf2 4bbb eed6 2fbd c9b2 0ebd
00000080: 3669 0b3c ca49 023e da8b 6e3e 49d7 f5bb
00000090: 1c82 cf3d 04dd 82bd 05d8 1f3d 8850 8fbd
000000a0: 0bee 963e 6eee 863e e7b3 1d3f ec9d 983e
000000b0: 1ae4 803e 466e cf3c fc3f 123e 4fb1 1c3d
000000c0: 9df8 ec3c 0b3f c4bb 09e0 853c 32ce c83d
000000d0: e1ed a0be c38e 3d3f 68b4 893b caf7 7f3f
000000e0: ed8c a03e 89de 053f c628 53bc 9216 87be
000000f0: 63b4 663e ae8a 5bbc 364f fc3b 7e14 dc3c
00000100: 6c8a b7bd 036d 0bbd a1b7 c8bd f0f6 91bd
00000110: 2de2 1c3f f60e 8abe ad4e 153f 8c4f 72be
00000120: 9611 443e 3c14 483c d13c 183e 7238 6ebe
00000130: a117 2fbf ad6f 8a3e 23d2 f53d 7cb7 2abd
00000140: 3ba6 bc3d ccc5 37be 53b4 3bbd e4d9 b7bc
00000150: abce a3bd 1dbd 09bd a0d3 723e 90a9 19be
00000160: ab1f 17bf 22fa 8b3f c7d2 023f b0c7 a33d
00000170: 38b9 79be 6644 343e edc1 87bd 1d3b 9bbe
00000180: 1bc9 7fbd f18f 87bd 30a2 26bd fd00 583d
00000190: 0942 30be eadd 30be 9283 dc3e 9972 1fbf
000001a0: 8c32 353e 8646 3bbe e807 e2bd d9a8 f7bc
000001b0: 4778 27be b227 4d3e 1556 d33e 6817 e73e
000001c0: 7576 61be 426e 03bd 8fd6 05be a8d2 17be
000001d0: e2e2 113e 79d5 ad3d c31c 08be 1bb9 5cbe
000001e0: ef1c 6f3e fce3 d13e 417c 9ebe d3c7 c3be
000001f0: 9548 b5bd bec8 203d 87be 0fbc a0a4 01be
00000200: 86b3 233f bb82 863e ff6c f0bd 14c8 3f3e
00000210: d5f1 013d 96b6 0fbc f9b9 fc3a 2448 1c3d
00000220: 806c 78bd e29c 7cbf 2352 e0bc da23 2bbf
00000230: 53ca 9b3d b0ce debe 8bc5 a73d 184d b0bd
00000240: d77a 29bd a437 653e 0803 de3e 4f4e fc3c
00000250: eae0 9b3d f963 1fbc ad5e 0a3d fb75 b5bd
00000260: 9eeb 1bbc 1d29 95bd 45f3 093f 36d2 ccbe
00000270: 4f51 9dbd f3da f63d 8d4a 00bf 2fd4 f03d
00000280: 69dd bf3e 30b3 063f 360a 023d e98d da3d
00000290: 596e 2bbd cf21 81bd 4bf2 2cbd 41e7 123c
000002a0: 1b97 ff3c c533 823c f5af 013e bf19 1dbf
000002b0: 6425 1fbd 01de f0bd be9f afbd 3f18 18bf
000002c0: 7dfa cabe fb67 1a3a 5d92 233e 527f 20be
000002d0: 14a5 593e f450 913c 8093 c2bd 7712 3a3c
000002e0: c596 793d 945b ea3d b463 f53d 66ef 283f
000002f0: f686 d5be 27e4 4e3f da34 0abf be1c 9d3e
00000300: f372 223f 0f5f 5a3e 55d1 b2be 7c73 eebe
00000310: 8c54 153f 37ce b5bd 59c4 88bd 059f debd
00000320: 3ba6 283c 4daf f0bd 2ee5 54bd 3f1e 9fbd
00000330: 630a db3b 3488 a2bf a2fa 9d3e 4e6e 0ebf
00000340: 3141 0f3f 4fef e33e 25be 16bd 3633 9b3e
00000350: 9041 04bf fd6b 443e 2b41 c03e fa0c 993c
00000360: 9140 9c3d 0d02 b5bd 83d8 153d 0d34 08bd
00000370: 966f ef3d 4839 2b3f 47c8 2ebe e68d 37be
00000380: 8570 f9bd da05 0fbd 55c6 e93c 1867 e93d
00000390: f860 5c3d f4f8 113e ce8f 90be a80c ce3e
000003a0: 87e6 2b3e 85b8 2b3e 00e3 7abd 14d9 b83c
000003b0: 2727 ed3c 8397 4ebd d8f1 f9bd 0697 a4bf
000003c0: 95b6 413f f4d9 bdbd ea52 4a3f 3dde 683e
000003d0: 292e fe3e f989 85be 0166 22bf ce38 1f3e
000003e0: b9a7 03be 2433 35bd e048 98bc 0121 dabb
000003f0: 2c23 9abd b08f 53bc a046 dd3b b207 793d
0.09235595 0.65328306 -0.3767841 0.08056058 -0.27321127 -0.53031087 -0.0069273924 0.19246706
0.5532676 -0.3199196 0.24045768 -0.043797966 -0.03260838 -0.09114796 -0.0046330034 0.05211785
-0.004727414 0.750515 -0.6974431 -0.14753379 -0.5477169 0.05879125 0.1780265 -0.1066144
-0.26174065 -0.017601753 0.4328216 0.11540582 0.0785266 -0.003112013 -0.042929582 -0.03483847
0.008508971 0.12723461 0.23295537 -0.0075024706 0.10132238 -0.06389812 0.03902437 -0.06997782
0.29478487 0.26353782 0.61602634 0.29807985 0.25174028 0.025321137 0.1428222 0.038255032
0.028927142 -0.0059889606 0.01634218 0.09804954 -0.31431487 0.7404596 0.0042024143 0.9998747
0.31357518 0.52292687 -0.012888139 -0.26384407 0.2252975 -0.013399763 0.0076998724 0.02686524
-0.08961949 -0.03403951 -0.098006494 -0.07127178 0.61282617 -0.2696454 0.58323175 -0.23663157
0.19147334 0.0122118555 0.1486695 -0.2326372 -0.6839543 0.27038327 0.12002971 -0.04167889
0.092113934 -0.17946547 -0.045826267 -0.022442766 -0.07998403 -0.033627618 0.23713541 -0.15006089
-0.59032696 1.093571 0.5110287 0.07997072 -0.24387062 0.17604217 -0.06628785 -0.30318537
-0.06244765 -0.066192515 -0.040682018 0.052735317 -0.1721269 -0.17272153 0.4306913 -0.6228424
0.17695063 -0.18288621 -0.11036664 -0.03023188 -0.16354476 0.20034674 0.41276613 0.45135045
-0.22017844 -0.032087572 -0.13070129 -0.14826453 0.14246705 0.08487982 -0.13292222 -0.21554987
0.23350881 0.4099425 -0.30954173 -0.3823839 -0.088517345 0.039253943 -0.008773453 -0.12660456
0.63945806 0.26271614 -0.11739539 0.18728667 0.03172477 -0.008771559 0.0019281498 0.038154736
-0.06065035 -0.98676884 -0.027382916 -0.6685158 0.0760695 -0.43517065 0.08191975 -0.086084545
-0.041376915 0.22384506 0.43361688 0.03079906 0.07611258 -0.009728425 0.033781696 -0.088603936
-0.009516625 -0.07283232 0.53886825 -0.40004128 -0.07681524 0.1205348 -0.50113755 0.11759221
0.3747361 0.5261717 0.03174802 0.106715985 -0.041853283 -0.063052766 -0.042223256 0.008966268
0.031199982 0.015893826 0.12664779 -0.6136741 -0.038854018 -0.11761094 -0.0857539 -0.59411997
-0.39644232 0.0005890128 0.15973802 -0.15673569 0.21254379 0.017738797 -0.0950079 0.011356941
0.0609348 0.114432484 0.119819075 0.65990293 -0.4170453 0.8081688 -0.53986895 0.3068599
0.6345665 0.21325324 -0.34925333 -0.46572483 0.58332133 -0.08877223 -0.06678075 -0.10870174
0.010293539 -0.11752186 -0.051976375 -0.07769441 0.006684588 -1.2697816 0.3085528 -0.5563706
0.5595885 0.44518515 -0.03680243 0.30312508 -0.5166254 0.1918182 0.3754972 0.018682946
0.076295026 -0.08838282 0.036583435 -0.033252764 0.11691205 0.6688428 -0.17068587 -0.17925224
-0.121796645 -0.03491769 0.028536955 0.11396617 0.053803414 0.14255124 -0.28234714 0.4024403
0.16787158 0.16769607 -0.06125164 0.022564448 0.028949333 -0.05043746 -0.12204331 -1.2858589
0.75669223 -0.09270087 0.79032767 0.22741027 0.49644592 -0.26081827 -0.63436896 0.15549013
-0.1285695 -0.044238225 -0.018589437 -0.0066567664 -0.0752624 -0.012912676 0.006752804 0.060798354

layer_1.bias f4 [400]
00000000: 718c edbe 9e97 cabe f1c5 e2be c9da dabd
00000010: 4784 9ebe 6456 3fbf 2904 8ebe a231 47bc
00000020: a54d adbe 68ac 11bf 6866 91be 901c b1be
00000030: dbf9 31be 3385 dabe fd87 a8be 2c88 33bf
00000040: 750e 5b3e f516 79be 25f7 18bf 976b 8a3e
00000050: 7f0c 6dbe a3f9 1ebe 8a41 e0be 7e2f 3bbf
00000060: 7e86 ee3d a9eb 0fbf d026 bcbe 56c5 05bf
00000070: 002f 84be 9077 b4be 8e40 3abe f762 fabe
00000080: 59c3 34bf 7c7a 11be a9df 38be 942d 9d3d
00000090: fd7c c2be 0a90 4ebf 520f eebe 061c f5be
000000a0: ca92 a8be 7464 25be 43d1 b0be 30c1 87be
000000b0: 4f92 2bbf 910d 1cbf bef1 093e 8d3c cfbe
000000c0: 051b e2be 50f0 693e 8273 bcbe 347d 05bf
000000d0: 50c6 37bf 9a3d 0ebf 5e7f 8dbd a608 d9be
000000e0: 8b23 8cbe d99b 07bf 1be2 00bf 4ed2 d53d
000000f0: 2553 57be f34a b9be 1cd6 34be 5d69 21bf
00000100: 0bc1 72bd c9bd a4bd 7cca 0abf e493 eabe
00000110: 6cb6 cdbe 4361 0cbf c703 6bbe 81c4 17bf
00000120: 22ec 253e 139d 9cbe 7631 aebe e5ea 06bf
00000130: 6e47 91be a927 0cbf 1173 8abc b24a 17bf
00000140: d7e2 85be 14c4 27bf 3547 18bf b876 bcbe
00000150: e9dd 13bf 2ad8 5ebf 7d0a b1be d97e 30bf
00000160: 7257 0dbf 91ac c9be f931 31bf ba4b f9bd
00000170: e2df 29bc 93b5 14bf 502f 31bf d02d bbbe
00000180: 694e c9be 1b02 2bbf 15e9 fabe b4e7 42bd
00000190: e5ed 51be 6e12 12bf ceb2 cd3b a3eb 42be
000001a0: f438 6bbe 26fd 10bf d35f d1be 7b9b ddbe
000001b0: b39e 15bf 6734 5ebe edd9 85be fd56 60be
000001c0: 257a 00bf f81d 20be 7c60 17be ef87 633e
000001d0: ca65 c3be 640b a1be 8c01 2cbf a11e 02be
000001e0: cf38 e3be 1690 25bf 8368 00bf ee0f fabe
000001f0: e55f 25be 30bb 13bf 08c2 14bf 07b1 d63d
00000200: db83 0bbe 11c0 dcbe 8c03 0fbf 344c 363d
00000210: dfda e2be 3c8d 23bf 24e5 d2bd 2fbf 2abd
00000220: deb1 91bd 8fae 21bd 7f7a 04be bdd5 90be
00000230: b12b fa3d 53e6 adbe 7b11 2ebe ff3d 09bf
00000240: 094b 17bf cc87 95be 2074 1bbf a003 2dbf
00000250: 1861 10bf a6e7 15bf 7d4f e4be 7f01 9dbe
00000260: 706b 243e 31fa 3ebf 0258 b5bc f3df a4bd
00000270: 4897 11bf 704c a0be 7e3e 11be 0061 3ebe
00000280: ad12 37bf 797a bbbe f0de 9739 78b3 d2be
00000290: f7d9 aebd c935 7dbe 03b8 61be f7c1 19bf
000002a0: 93bc 01bf 7dc9 31bf 850b 02be 7838 19bf
000002b0: 1ff5 2dbe 2a65 bbbe 9f63 e7be e0e9 10bf
000002c0: bd73 f5be a112 16bf 8069 e7be 388a 45bf
000002d0: ba93 e6be 49cb e2be b48a 16bf a8de c13e
000002e0: 18ff 12bf 7b25 28bf 4406 dabe dfd2 8ebe
000002f0: f971 96be 2a98 fc3c 57f7 20bf 4780 29bf
00000300: f262 c03e 63f2 80be 0c91 473d 806b d43b
00000310: a23e b7be ddf5 1ebf 12ec 8cbe 6595 443e
00000320: d716 c4be 45f7 76be 9171 12bf 3be3 57bf
00000330: b65e 78be 2244 e4be 9608 bebe 53dd 2dbe
00000340: 831e 713c 3235 a9bd 37c1 a7be df50 28bf
00000350: 0980 36bf 2506 1dbf fd2f 10bf 98a6 1a3e
00000360: c858 803d 7c4e c5be 2e59 d1bc ec10 85be
00000370: b2fe 05be 75a8 87be 6c05 25bf 6efe 00bf
00000380: 9bb2 0bbd dcd5 99be 70b6 38bf 05f4 e0be
00000390: d43c e4be 7d89 7dbe 5659 07bf 864c eebe
000003a0: 23f9 ebbd 4716 d5be 170b 72be b30e f1be
000003b0: 06ad cbbe 7cad b5be 5b58 8ebe 8857 d6be
000003c0: fbfc 6abe 93fd 1cbe 76be 8abe 2002 45bf
000003d0: dda2 93be 6363 f2be 4461 b43d 10d8 bfbe
000003e0: ab2d fdbc a71f 16bf 7442 d1be e62a bdbe
000003f0: 6d9c 36bf 6b30 26bf d203 eabe e792 babe
-0.4639621 -0.395688 -0.44291642 -0.10686261 -0.30960295 -0.74741197 -0.2773755 -0.0121578295
-0.338483 -0.56903696 -0.28398442 -0.34592104 -0.17380469 -0.42679748 -0.3291625 -0.70129657
0.21392234 -0.24325164 -0.5975211 0.2703521 -0.23149298 -0.15524916 -0.43800002 -0.7311934
0.11646746 -0.56218964 -0.36748362 -0.52254236 -0.25817108 -0.3524747 -0.18188688 -0.4890363
-0.70610577 -0.1420688 -0.1805407 0.07674709 -0.37985983 -0.80688536 -0.46496063 -0.47872943
-0.3292449 -0.16151601 -0.34534654 -0.26514578 -0.67020124 -0.609582 0.13471124 -0.40475884
-0.4416124 0.22845578 -0.36806875 -0.5214417 -0.71786976 -0.55562747 -0.06909059 -0.4238941
-0.27370867 -0.5297218 -0.5034501 0.10440503 -0.21027811 -0.36189994 -0.17659801 -0.63051397
-0.05926613 -0.08044011 -0.54215217 -0.45815957 -0.4017824 -0.5483591 -0.2295066 -0.59284216
0.16203359 -0.30588588 -0.3402211 -0.5270217 -0.2837481 -0.54748017 -0.016900571 -0.5909835
-0.26149628 -0.65533566 -0.59483653 -0.36809325 -0.57760483 -0.8704859 -0.34578314 -0.68943554
-0.55211556 -0.3938947 -0.6921688 -0.12172647 -0.010368319 -0.5808956 -0.6921282 -0.3655839
-0.39317635 -0.6680009 -0.49005952 -0.04758425 -0.20500906 -0.5705937 0.0062774187 -0.19035201
-0.22970945 -0.56636274 -0.4089342 -0.43282685 -0.5844528 -0.21699677 -0.26142827 -0.21908183
-0.5018638 -0.15636432 -0.147829 0.22219823 -0.38163596 -0.31454003 -0.6718986 -0.12706997
-0.4437928 -0.6467298 -0.5015947 -0.48840278 -0.16149862 -0.577075 -0.5810857 0.10482984
-0.13624518 -0.43115285 -0.5586479 0.044506267 -0.4430761 -0.6388738 -0.10297611 -0.041686233
-0.071140036 -0.039473113 -0.12937354 -0.2828807 0.12215365 -0.33964786 -0.16998856 -0.53610224
-0.5909887 -0.29205167 -0.6072407 -0.67583656 -0.56398153 -0.5855659 -0.44591895 -0.30665204
0.16056609 -0.7460051 -0.022136692 -0.080505274 -0.5687146 -0.31308317 -0.14183995 -0.1859169
-0.7151287 -0.36616877 0.00028967066 -0.4115255 -0.08537667 -0.24727549 -0.22042851 -0.6006159
-0.50678366 -0.6944807 -0.12699707 -0.5985179 -0.16988038 -0.3660062 -0.45193192 -0.56606865
-0.47939864 -0.58622175 -0.45197678 -0.7716403 -0.4503458 -0.4429572 -0.58805394 0.37865186
-0.5742049 -0.6568219 -0.42582905 -0.27895257 -0.2938383 0.030834276 -0.6287741 -0.6621136
0.3757549 -0.25184926 0.04872231 0.0064825416 -0.35789973 -0.6209391 -0.27523857 0.19197614
-0.38298675 -0.24117763 -0.5720454 -0.843311 -0.2425488 -0.4458323 -0.37115926 -0.1697896
0.014716747 -0.08262099 -0.327646 -0.657484 -0.71289116 -0.613375 -0.56323224 0.15102613
0.06266934 -0.3853644 -0.02555522 -0.25989473 -0.1308544 -0.2649571 -0.644614 -0.5038823
-0.03410588 -0.30045974 -0.7215338 -0.43936172 -0.44577658 -0.24759479 -0.5287069 -0.46542758
-0.115221284 -0.4161856 -0.23637043 -0.47081527 -0.39780444 -0.3548392 -0.27801785 -0.41863656
-0.22948067 -0.15331106 -0.27098435 -0.7695637 -0.28835192 -0.4734145 0.088076144 -0.3746953
-0.030905565 -0.5864205 -0.40871012 -0.3694679 -0.71332437 -0.6491763 -0.4570604 -0.36440203

layer_2.weight f4 [300, 400]
00000000: 138f f6bd d77d 70bc a548 9cbd 929e 093d
00000010: 2db3 c2bb 6fb8 e1bc 53cc 3dbd 2b35 723c
00000020: 5238 cd3c b20f d73c 3b74 063d 1a68 8fbd
00000030: ab7c 5abb 9a44 1ebd b6a4 d2bc 0b0e 4cbc
00000040: e8c5 91bd 966d 60bd 61f9 17bd 4e79 30bd
00000050: 2a58 65bd cd62 d9bd 70a8 fd3c 9588 b5bd
00000060: 1284 b0bc 5a6e 40bd 81e7 3dbd dbae b3bd
00000070: 2a54 cdbd 764c 673c ee22 1cbd ea55 88bd
00000080: b69a 44bd 7d0b 6cbd d0b8 23bd 93a6 823b
00000090: 09a6 4bbb 553c b1bb 7e1c 3bbc 9a90 f6bd
000000a0: 80a7 31bd 6739 34bc a152 85bd b5d2 743b
000000b0: 53a8 103d a465 f1bd b8db f3bc e10a dbbc
000000c0: 196b 6b3b 5012 fcbc dfe0 6dbd 8c9c e6bc
000000d0: 79db b1bd aeae f9bc 2dc3 72bc 06c0 373b
000000e0: 6975 f8bc 57e3 eb3b 6015 2c3b 994c 3cbd
000000f0: 54b7 92bd 6149 1abd 1809 2f3d 67bc 8e3c
00000100: b188 cbbc 4713 71bb fe04 993b 87d8 10be
00000110: b214 a2bd 4aa8 acbd 601e c8bd a422 143d
00000120: 4e4f d43c ce18 1abc 00ba 94bd 18d5 043d
00000130: b993 fc3b 3e01 b1bd d288 02be 0920 243d
00000140: a64f d73c d0bb 19bd 56fe 0bbd 3290 8cbd
00000150: 882f 1a3d 83ca 81bd 0ef7 6fbc 9599 4c3b
00000160: 345c 193c 1b0e 503d 13d0 b3bc 5503 d6bb
00000170: aa21 2b3c d849 f53b 5e9d cfbd 5378 42ba
00000180: 2148 443c 68af 8ebd e24b 25bd 4851 50bd
00000190: e922 473d 8bf1 69bc 885e 75bc a008 84bd
000001a0: 5e66 95bc c439 bfb9 d49f c93c 214b 8fbb
000001b0: b1e5 0abd 9b46 9ebd 7403 d4bd cc70 97bc
000001c0: 13df 15bd 7cb1 afbc 4950 cfbc ee8b b8bd
000001d0: 2df2 b9bb 8c09 5dbc 0d30 b1bd 891b 74bc
000001e0: a498 ddbc 7dd0 a3bd 885d a0bc 20e1 1cbd
000001f0: a323 b83c 34a0 14bc 452d c43a a3ce 09bd
00000200: c26d 55bd e548 49bd 4d9d 51bd 6e46 9bbc
00000210: 6b04 dc3c 5f27 91bd cbc0 9dbd f03c 673c
00000220: 3e50 22bc 79b3 cb3c 68be 4e3b 8f8a aabd
00000230: 47ff f7bc ae8d 8fbd b7f2 b53c c988 85bd
00000240: dd18 28bd eeb9 833b 3997 f7bc 826b 94bd
00000250: 4404 8abd b5f2 4dbd f082 9a3c 54ee aabd
00000260: c996 06bd 5a3e 62bd ccb9 3fbd 3b12 d5bd
00000270: 661f 97bd e1d7 52bd 22d3 49bc e477 97bc
00000280: 5e18 89bd c8a8 67bd cb93 e3bd 1552 c33c
00000290: 2687 fbba 89e6 8f3d 4d3f 823c 8635 8dbd
000002a0: 3bee 42bd 96a2 acbd 6a21 993c d0e6 88bc
000002b0: 1b7e 02bd dcad 0dbc ea94 94bd 4599 18bc
000002c0: df38 763b f867 84bd c66e 5a3d 8edf ecbc
000002d0: 4a56 f5bb 3e4b b3bd b194 c4bc abfc 2dbd
000002e0: d1e5 75bd 168b 9fbd 7a68 f8bd 3794 bdbd
000002f0: fded 5ebb 39d2 c73c a109 1c3d 51a5 8dbd
00000300: 31f0 aabd 647c d3bd 4a5d de3c 2428 dfbc
00000310: fb89 2dbc 0ee4 94bd 0d15 973c 087a 4abc
00000320: a58b 763a 583e 35bd dcb3 33bd 4131 8cbd
00000330: 290f cebd 44a1 b7bb 05aa a8bd 3c5c 26bc
00000340: f4c9 34bd 259c e8bb 22f5 82bd f59c 21bd
00000350: 1b4b 7cbc 5ca2 74bc b759 07be 8c46 363c
00000360: 804c 74bc 7f2d 87bc 90a1 07bd 71aa 14bd
00000370: 59e3 03bd b961 a93a 56dc c0bd adb1 e3bd
00000380: e357 0b3d 5e79 72bd 4c7f 3bbc ea8a 7dbc
00000390: a69e a9bd 9292 95bd df85 38bb e47f 4fbb
000003a0: 2948 84bd d02c 8dbc 942d 96bd ab45 2bbd
000003b0: 4188 a9ba 7c72 30bd 95df 22bd da93 e03a
000003c0: 3afa 273d 1bc1 6e3c 6254 8abd 285f ebbc
000003d0: 0425 9dbd 7de0 cdbd be65 1f3c 5550 86bc
000003e0: 581d e9bc 9766 d03c 13d5 0fbc 3d64 99b9
000003f0: d51d 33bd c475 bcbd 4be5 b33c a03f 24bd
-0.12039008 -0.01467844 -0.07631043 0.03359849 -0.0059417696 -0.027553765 -0.046337437 0.014783184
0.02505127 0.026252601 0.03282569 -0.07002278 -0.0033338468 -0.038639642 -0.025713306 -0.01245452
-0.07117826 -0.05479201 -0.03710306 -0.043084435 -0.055992283 -0.10614548 0.030964106 -0.088639416
-0.021547351 -0.04698024 -0.046363357 -0.087735854 -0.10025819 0.014117351 -0.03811925 -0.06657012
-0.047999106 -0.057628144 -0.039971173 0.0039871424 -0.0031074306 -0.0054088035 -0.011420367 -0.12039299
-0.04337263 -0.011000014 -0.06509901 0.0037357036 0.035316776 -0.117869645 -0.029767856 -0.026738586
0.003592199 -0.03077045 -0.058075782 -0.02815082 -0.08684439 -0.030478802 -0.014817041 0.002803804
-0.030329423 0.007198732 0.0026257858 -0.045971487 -0.07163873 -0.037667636 0.04273328 0.017423822
-0.024845453 -0.0036785172 0.0046697846 -0.14145099 -0.079141036 -0.08430536 -0.097714186 0.03616585
0.025916722 -0.009405328 -0.07262039 0.032429785 0.0077080396 -0.08642815 -0.12747505 0.040069614
0.026283097 -0.037532628 -0.0341781 -0.068634406 0.037642986 -0.06337454 -0.014646305 0.0031219472
0.009360362 0.050794702 -0.021949803 -0.006531159 0.010445038 0.0074856095 -0.10137437 -0.00074184424
0.0119800875 -0.0696705 -0.04035557 -0.050858766 0.048617277 -0.01427878 -0.014976151 -0.064469576
-0.018237289 -0.00036473398 0.024612345 -0.0043729697 -0.033910457 -0.07728311 -0.10352221 -0.018486403
-0.036589693 -0.021446936 -0.025306838 -0.090110645 -0.0056746216 -0.013491046 -0.08651743 -0.014899143
-0.027050324 -0.0799875 -0.01957585 -0.038300633 0.02247793 -0.0090713985 0.0014967105 -0.03364433
-0.052106626 -0.049141783 -0.051175404 -0.018954482 0.026857575 -0.070875876 -0.07702788 0.01411365
-0.009906827 0.024865853 0.0031546596 -0.08327209 -0.030273093 -0.07009445 0.022210462 -0.0652023
-0.041039336 0.0040199673 -0.030223476 -0.07247068 -0.06739095 -0.05028029 0.018861264 -0.08346239
-0.032858644 -0.055235244 -0.04680805 -0.10403868 -0.07379036 -0.05147541 -0.012318404 -0.018489785
-0.06694101 -0.056557447 -0.11112174 0.02384285 -0.0019190058 0.07026393 0.015899325 -0.068949744
-0.047590476 -0.08429448 0.01869269 -0.016711622 -0.031858545 -0.008647408 -0.072549656 -0.009313886
0.003757052 -0.06465143 0.053328298 -0.028915193 -0.007487093 -0.08754586 -0.023996683 -0.04247729
-0.060033623 -0.077902004 -0.12129302 -0.09256785 -0.0034016364 0.024392234 0.03809512 -0.06916297
-0.08346594 -0.1032646 0.027144093 -0.02724082 -0.010591979 -0.072700605 0.018442655 -0.012358196
0.0009404964 -0.04424891 -0.0438727 -0.06845332 -0.10061485 -0.005603941 -0.08235554 -0.010153826
-0.04413791 -0.007098692 -0.063944116 -0.039456327 -0.015398766 -0.014931288 -0.13217817 0.011125218
-0.014910817 -0.016501186 -0.033113062 -0.036295358 -0.032199237 0.00129228 -0.09417026 -0.11117873
0.034019362 -0.059197776 -0.011443924 -0.015475014 -0.08282213 -0.07303347 -0.0028155965 -0.0031661922
-0.06459076 -0.017233282 -0.07332912 -0.041814487 -0.0012934284 -0.04307793 -0.039764006 0.0017133907
0.04101012 0.014572407 -0.06754376 -0.028731897 -0.07673076 -0.10052583 0.009728847 -0.016395727
-0.028456375 0.025439544 -0.008778828 -0.00029257117 -0.043729622 -0.092021495 0.021959921 -0.04009974

layer_2.bias f4 [300]
00000000: 02f8 27bc bd8e 55bd a7e6 5abd 840f 8f3b
00000010: 36af 20bd 82fb 863d 14f0 7abd 7c35 56be
00000020: 7930 97bd dff4 e0bc faf0 553e a7b9 aa3e
00000030: 24cb cd3e 02af ad3a 37af 4abd 6bd8 aabd
00000040: 0c24 9dbd 54e5 5b3e fc3c 62bc de9f bebc
00000050: d379 05be 904f d3bc f29e c8bc 0921 38bd
00000060: f31f efbc 209c cebe bdd4 153d a1a5 85bd
00000070: 475e 193e eb7b 6fbd 42a4 0fbd cb58 b8be
00000080: 4795 98bd 4dd8 92bd 77fc 88bd 38c7 42bd
00000090: 5428 f3bc 3385 aebd af9e 6dbd dc19 a1bd
000000a0: 6a34 9dbd 2786 6f3c 7cab 7bbd c0db aabc
000000b0: be4f 733e 185d 2c3a b422 ecbd 0519 a1bd
000000c0: e3d6 413d 7d05 aa3c 4f63 6fbd 161c 813c
000000d0: d586 44be 54b5 c6bd 7aaf 7e3d 1574 84bc
000000e0: e978 c6bb 165b 27bd 839f a9bd 3685 03bd
000000f0: 62f5 693c f3fa 7bbd 5521 77bd 7661 96bd
00000100: 4a13 533c 763f 8cbd f1ca 3b3b 33f0 b8bd
00000110: a797 673c 1016 ccbd 7c38 70bc 0fac 113e
00000120: 2f1a b73e 13de 41bc ac07 07bd 36b8 973e
00000130: 4aa1 6b3e fb59 75be b67c f8bd 32af 87bd
00000140: 39ba 8e3b db0b 4d3d b71d 67bd 76d2 4e39
00000150: 70d3 8cbd a27d 70be 6e3a 22bd 0ec1 7f3e
00000160: 986e bcbd 7aec 91bb 099c 99bb ee8e a5bc
00000170: d30a 54bd 0c25 72bd 4612 3cbd a2aa 6ebd
00000180: 41ea b23e 1342 26be 7aa1 a6bd aec2 2ebd
00000190: 5d5e bc3b a4f9 1fbd bf01 7ebd dd7f 1ebd
000001a0: ee8e 343e 5116 42bd 3836 c1bc 2210 c3bc
000001b0: b39e 13ba 3c4c af3e 97ad 88bd 9f03 be3d
000001c0: 1478 20bd 3d94 9bbd d319 16bd 5185 44be
000001d0: 1bc6 84ba efa9 e03e 3245 33bc af1d cf3d
000001e0: b6e5 18bd eaa0 1bbb 0b1f 8bbd 1db7 a1bd
000001f0: d470 0dbd 6ed9 e8bc 5616 95bd 8af8 7fbd
00000200: 65a1 10bd 476e 8fbd e1b9 863e 72ab 14be
00000210: d5e9 06bd e990 a8bc 4afa a6bb a55d 2a3e
00000220: f06d 84bd 3afa 073e 94f8 4e3c 1e08 8fbd
00000230: 2080 68bd e99b a13d 8804 033f ebbc 11bd
00000240: 5677 a1bc dd0f b5bd d7e7 09bd e41e 663e
00000250: 2ee5 ec3b f81d 0bbe 7eb7 b1bd 7eb3 bcbd
00000260: 5797 253d c627 4dbd 910e 9ebd 6cef 5bbc
00000270: 3601 d23e 75e9 7b3e 56a6 74bd 5b14 5d3d
00000280: aad2 0fbc 1548 94bd 7939 a3bd faa3 d53d
00000290: 513c 5fbd 8217 89bd 64d4 91bc b708 f7bd
000002a0: 206d 10bd 3cee 35bc bf96 993e d341 9cbd
000002b0: d2e2 d63c 8909 d839 fd58 e93d 3239 0fbe
000002c0: 5479 f63c ab60 4fbd 6f9e 89bd 9085 d6bd
000002d0: 6f9d 583d 62e4 1c3f 7fe1 c1bb 928e 03be
000002e0: 1765 d83a 2ee8 87bc 2dae 3cbd 51f9 003e
000002f0: ad40 413e ab41 1fbd 9d8a 99bd ffd3 9bbb
00000300: 7965 9fbc 8371 82bd 2be6 ebbb 1d18 d83b
00000310: a26d 55bd b699 7cbd 327b c7bd 66be dc3b
00000320: 6260 86bd 6b3a 313d f78c 36bd b38e 14bd
00000330: 2fbd 57bd 43c9 8ebc f234 8b3e 264f b3bd
00000340: 922d 38bd 040c b1bd 4baa 70bc 2eee 07bd
00000350: 91f4 1ebd 6378 a33b 4fcb d8bd 8552 92be
00000360: a882 3ebc 57ef 86bd 8aab 51bd 753c 7abd
00000370: 2c3a 5abd 55eb b2bd 513c c4bd f1de 543b
00000380: 07d3 853c 89c4 0ebd 8369 ec3d d219 1b3c
00000390: 29f4 a0bc 5c95 dfbc e76a b4bd 9df9 50bd
000003a0: 99e2 083d 0594 403f dac0 813c a66c a93d
000003b0: 5a57 8cbc 2a3e 373d 08f0 fd3c 7eb3 a1bd
000003c0: 8ea2 51bc b42a c73e 336e 9f3e 837d 1abe
000003d0: e890 9ebd dfdc 62bd 66f1 bdbd 795c 73bd
000003e0: 44bf 1f3e 1f0d ab3c 0ff4 1f3e 04aa aabc
000003f0: 737d c3bc 9b17 2dbe 1834 b9bc 6014 0a3e
-0.010252001 -0.05213808 -0.053442623 0.0043658633 -0.039229594 0.0659094 -0.061264113 -0.2091884
-0.07382292 -0.027460514 0.20892707 0.33344766 0.40194046 0.0013251009 -0.049483504 -0.0834206
-0.07672891 0.214742 -0.013808485 -0.02326959 -0.13034754 -0.025794774 -0.024489854 -0.04495338
-0.02919004 -0.4035349 0.036579836 -0.06525732 0.1497737 -0.058467787 -0.035068758 -0.36005244
-0.074503474 -0.07170162 -0.06688779 -0.04755327 -0.029682316 -0.085214995 -0.05801266 -0.078662604
-0.07676013 0.014619387 -0.061442837 -0.020856738 0.23760888 0.00065751513 -0.115300566 -0.078661
0.047324073 0.02075457 -0.058444317 0.015760463 -0.1919206 -0.09702554 0.062179066 -0.016168633
-0.006056894 -0.04085835 -0.082823776 -0.03210946 0.014279695 -0.06151862 -0.060334522 -0.07342808
0.012883017 -0.06848042 0.0028654898 -0.09030189 0.014135278 -0.099651456 -0.014661904 0.14225791
0.35762164 -0.011832732 -0.0329663 0.2963273 0.23010746 -0.23960106 -0.12133162 -0.06625213
0.0043556956 0.050060134 -0.056424823 0.00019724094 -0.06876266 -0.23485425 -0.039606504 0.24975988
-0.092007816 -0.004453239 -0.0046877903 -0.020209756 -0.051768135 -0.059117362 -0.045915864 -0.058268197
0.34944347 -0.16236143 -0.08136268 -0.04266613 0.0057485537 -0.039056435 -0.062013384 -0.03869616
0.17632648 -0.047384564 -0.023585424 -0.023811404 -0.0005631253 0.3423785 -0.06673735 0.092780344
-0.039177015 -0.075966336 -0.03664572 -0.19191481 -0.0010129841 0.4387965 -0.01094179 0.101130836
-0.037328444 -0.0023747035 -0.0679303 -0.07896254 -0.03453143 -0.028423991 -0.07279651 -0.062492885
-0.035310168 -0.070034556 0.2631369 -0.14518526 -0.032937843 -0.020576911 -0.0050957548 0.16637285
-0.064662814 0.13279048 0.012632508 -0.0698397 -0.056762815 0.078910656 0.5117879 -0.035580557
-0.019710224 -0.08840916 -0.033668365 0.22472721 0.007229469 -0.13585651 -0.086775765 -0.09213923
0.040427532 -0.05008676 -0.07717622 -0.013423782 0.4101655 0.24600776 -0.059728943 0.05397449
-0.008778254 -0.07240311 -0.079699464 0.10431667 -0.05450088 -0.06693937 -0.017801471 -0.12062209
-0.03526032 -0.011104163 0.29997823 -0.076297425 0.026231203 0.00041205835 0.11393926 -0.13986662
0.03008715 -0.0506293 -0.06719672 -0.10474694 0.052884515 0.61285985 -0.005916774 -0.12847355
0.0016509619 -0.016590204 -0.046064544 0.12595107 0.18872328 -0.038880985 -0.074971415 -0.0047554965
-0.019457566 -0.06369307 -0.007199069 0.0065946714 -0.052106507 -0.061670028 -0.097402945 0.0067365644
-0.06561352 0.043268602 -0.04456803 -0.0362689 -0.052670654 -0.017429953 0.27188832 -0.08755331
-0.044965334 -0.0864487 -0.0146890385 -0.03318613 -0.038807455 0.0049887164 -0.10585653 -0.28578582
-0.011627831 -0.06588619 -0.051188983 -0.061092813 -0.053278133 -0.08736292 -0.09581817 0.0032481516
0.016335977 -0.0348554 0.11543562 0.009466605 -0.019647675 -0.0272929 -0.088094525 -0.0510193
0.033419225 0.7522586 0.01583903 0.08272676 -0.017131496 0.04473702 0.030998245 -0.078955635
-0.012795104 0.38899767 0.31138763 -0.15086941 -0.077424824 -0.05538642 -0.09274559 -0.05941436
0.15600306 0.02088028 0.15620445 -0.020833023 -0.02386353 -0.16903536 -0.022607848 0.13484335

layer_3.weight f4 [6, 300]
00000000: ea40 9c3d e5c9 9a3b aca1 343c c3c8 f33b
00000010: 6229 91be c943 c93c a035 3a3d 4103 cc3d
00000020: d2a9 103d 35bf dcbc 0ec0 2fbe 9424 7cbe
00000030: 6ebb 08be f05d b83b 2f83 25bd 80f7 7b3c
00000040: 28c5 c73b 23a5 f0be ee21 3f3d 856b 153c
00000050: 1317 8f3d e823 14bd 96a2 333c beb9 263c
00000060: 9094 56ba a144 30bf ffd3 173d 7ff2 d53c
00000070: 1997 813d 45a7 5b3d a5ca 86bc f064 0f3f
00000080: 8eb5 73bc 3085 0e3e 346a 923c 46e8 c23c
00000090: c71b f63b 147e 9c3c 6ef3 00bd 8f86 f1bc
000000a0: 13f0 913b 7b6e 763d adde 2c3d 1959 0f3d
000000b0: 3bba 95be d28e fdbc 0c0f 04bd 5aa7 f03d
000000c0: 5c12 a13d b6c7 a63c 3df3 703d 97bf 253d
000000d0: 567b 0dbf ec15 c03b c4d6 2abe a41d bb3c
000000e0: e278 723d c664 d53d 07a2 70be acaf 9bbb
000000f0: c90b 203d b722 533c 0c6c 853c 2d2a 0a3d
00000100: 13f1 423d b590 a73c 6017 993c 5a93 b6bc
00000110: 59f5 1e3d 1988 f7bc 9ad3 19bd 6488 76bd
00000120: a2fc dcbe f59f efbc 7cfc 82b8 ef52 813e
00000130: e8d1 823e 83b3 a8bb 9fff 8fbd 9e4f 2dbd
00000140: 7b4c 17bd f852 ccbd 6ceb bcbc d48e 483d
00000150: 2959 76bd 5d96 f0be f19a 3cbc e224 93be
00000160: f99a ff3c 37a8 043a 65c7 bd3b c06e bfbc
00000170: 7507 a9bc f9f1 183e 980b 543d dd6b e5bc
00000180: 9a47 00be b18c 12bc 328a 89bb 8278 383d
00000190: 0e79 13be 90ac d23c 8c31 85bc 28da 0ebd
000001a0: 34d2 35be 7021 d53c 8ce7 5e3d 5575 5a3d
000001b0: 0405 76be 8abf cfbe fdd0 0ebd 8344 73bd
000001c0: d8df 08bd b608 c63d 580d 83be edaa 343f
000001d0: 453f b63d 023a f53e eff7 013e 4e8a e8bd
000001e0: 8ca8 9b3d f7a8 693c 4124 de3c 2256 f0bd
000001f0: 1331 cdbb e680 ab3d eabe 2f3d 763a bd3c
00000200: 7330 03bd c87e 25be 7a9d 38be 5864 c33d
00000210: 91ae 463b 9a40 b4bc 0c7d d739 6d28 1dbe
00000220: f90b aabb 716e c73d 0dba ec3c f0d6 35bc
00000230: 199a 973d 1268 65be af61 ebbd c503 2fbd
00000240: afde 593d f794 7dbb 1f89 1a3d 4848 38be
00000250: 687f b0bd f8b0 67be 2f93 acbc 312a 15bd
00000260: 1bb5 c8bb 63ac c1bb 76a4 01be 377e c0bc
00000270: 720d c0be 31fc 2a3f c6e0 673d 6e26 08be
00000280: 8bb8 3ebc 6165 a6bc 0fec 7f3d ac19 d73e
00000290: afe9 8c3d 714e bdba 7d35 883c b143 bdbd
000002a0: 7559 543d d7c6 623d 34c7 923e 7f39 d4bb
000002b0: 477d 603e 6664 e8bd 0477 a4bc 4d17 c2bc
000002c0: da75 9cbc fc79 753d 85c2 273b af50 82bb
000002d0: 1b2b dabd 42d3 87be e6ac c1bc 3076 5b3e
000002e0: 26ea d33c 441a 813d d805 33bd 06f4 163e
000002f0: b9e5 703d 4462 783d 8f93 883d 3241 a73c
00000300: f709 0a3d 8902 d2bc a44a 3c3c 7c00 16bc
00000310: c596 4dbc 6c8f 19bd d8ab 273c 7efc 1cbc
00000320: aef5 1cbd 52ba 0abe e7a8 95bd b82a dfbb
00000330: 7251 053d 8189 9b3d 22ed 09bd 2ec5 b33c
00000340: 0a3e 60bc a87c 5d3d 7bbb 6d3d 3c13 0c3d
00000350: cbb9 103d 2e12 2c3d 689d ef3c 0f9d 4b3e
00000360: c21f 513d ff97 4cbe 34b9 643c b473 b13c
00000370: f444 7f3d 8243 3c3b 4082 d43c ff77 6b3d
00000380: e6d8 c83d 4eea 0e3d ab9f c93d cf6c 62bd
00000390: a1c2 673d 336f 8c3b d3c5 7f3d 3b79 24bc
000003a0: 8d19 223d b061 69bc 36ba 91bd f0f5 bfbe
000003b0: 73f8 a1bb fd77 abbc 6937 093d 44df 053d
000003c0: 0089 c1bb e106 3abe c8c3 dbbe ff80 5f3d
000003d0: ac66 3bbd 573b 32bd 23be 883d 8c1f f13a
000003e0: e42d e2bc dc7e 173d 5173 dfbe d27d 983d
000003f0: edd1 c03c bda3 cc3d f28a 683c ee2d 14be
0.07629569 0.0047237747 0.011024874 0.007439704 -0.28351885 0.024568455 0.045461297 0.09961558
0.035318203 -0.026946643 -0.17163107 -0.24623328 -0.13352749 0.0056264326 -0.04040831 0.015378833
0.006096501 -0.4700099 0.046663217 0.009119873 0.06986823 -0.036167055 0.0109640565 0.01017612
-0.00081855897 -0.6885472 0.03706741 0.026116608 0.06327648 0.053626318 -0.01645405 0.56013393
-0.014874829 0.13917994 0.017872907 0.023792397 0.0075106355 0.019103087 -0.031482153 -0.029483108
0.004453668 0.060163956 0.042204548 0.03499708 -0.29243645 -0.030951891 -0.032240912 0.1175067
0.0786483 0.020358901 0.05882572 0.040465917 -0.5526632 0.0058619883 -0.16683489 0.022841282
0.059197314 0.10419612 -0.23499309 -0.0047511663 0.03907374 0.012886695 0.016286872 0.03373163
0.047593188 0.020454744 0.018687904 -0.02228706 0.0388082 -0.030216264 -0.037555315 -0.060188666
-0.43161494 -0.029251078 -6.245912e-05 0.25258586 0.2555077 -0.0051483526 -0.07031178 -0.042312257
-0.03693817 -0.099767625 -0.023061477 0.048964337 -0.060143624 -0.46989718 -0.01151155 -0.28739077
0.031201826 0.00050604664 0.005791592 -0.02336824 -0.020633439 0.14936055 0.05176887 -0.028005535
-0.12527314 -0.008944676 -0.0041973824 0.0450368 -0.14401647 0.02571705 -0.016258977 -0.03487602
-0.17755967 0.02601692 0.05442004 0.053334553 -0.24025351 -0.4057582 -0.034867276 -0.05939151
-0.0334166 0.0966963 -0.25596118 0.7057331 0.088987865 0.4789582 0.12692235 -0.113545045
0.07600507 0.014261476 0.027116897 -0.117351785 -0.0062619536 0.08374195 0.04290668 0.023099165
-0.032028627 -0.16161644 -0.18028823 0.095406234 0.0030316452 -0.02200346 0.00041101163 -0.15347452
-0.0051894155 0.09737862 0.02889731 -0.011098608 0.07402439 -0.22402981 -0.11493241 -0.042728204
0.053190883 -0.0038693526 0.037728425 -0.17996323 -0.08618051 -0.22626102 -0.021066276 -0.03641719
-0.006125105 -0.0059104427 -0.12660393 -0.023497684 -0.37510258 0.66791064 0.056610845 -0.1329591
-0.011640678 -0.020312013 0.062480982 0.42011774 0.06880509 -0.0014442933 0.016627068 -0.09241427
0.051843125 0.05536541 0.28667605 -0.0064765806 0.2192279 -0.113472745 -0.020076282 -0.023692751
-0.019099165 0.059930786 0.002559812 -0.0039769034 -0.10652753 -0.26528364 -0.023642015 0.21431804
0.025868487 0.06303838 -0.043706745 0.14741525 0.05881283 0.06064059 0.066687696 0.02041683
0.03370091 -0.025635974 0.011492405 -0.009155389 -0.012548153 -0.037490293 0.010233842 -0.009581683
-0.038320236 -0.13547638 -0.07307606 -0.0068105124 0.032548375 0.07594586 -0.033673413 0.021944609
-0.013686666 0.05407396 0.058040123 0.03419803 0.035333436 0.042009525 0.029249862 0.19884132
0.051055677 -0.19979857 0.0139601715 0.021661617 0.06232162 0.0028726761 0.025941014 0.057487484
0.09806995 0.03489142 0.098449074 -0.05527955 0.056582097 0.004285717 0.06244452 -0.010038669
0.03957515 -0.014244482 -0.07115595 -0.37492323 -0.0049429475 -0.020931238 0.03350011 0.032683626
-0.0059062243 -0.18166687 -0.42922807 0.05456638 -0.045752212 -0.043513622 0.06676891 0.0018396243
-0.027609773 0.036986217 -0.43642667 0.07445873 0.0235376 0.09992168 0.014193283 -0.14470646

layer_3.bias f4 [6]
00000000: e8b4 3dbe cb06 1a3e 86a1 c83d 5357 5dbe
00000010: da3e 1e3e 089b c8bc
-0.18526042 0.15041654 0.09796433 -0.21615343 0.15453663 -0.024487987
