mujoco_env/vector/032/pytorch_models/TD3_HalfCheetah-v3_42-11_actor.pth (torch, 519525 bytes, 6 tensors)

layer_1.weight f4 [400, 17]
0	0x3e3de0cb	0.18542783
1	0x3e4e2349	0.20130648
2	0xbd68bb7b	-0.05681942
3	0x3e6424a0	0.22279596
4	0xbd59a9c5	-0.05314042
5	0x3d4876cf	0.04894143
6	0xbdf1d3c3	-0.118079685
7	0x3e11daff	0.14243697
8	0x3e5aefd8	0.21380556
9	0xbe363389	-0.17793097
10	0x3e57ded9	0.21081103
11	0x3d39edcc	0.045392796
12	0x3e377ceb	0.17918746
13	0x3d068a4d	0.032846738
14	0x3def8253	0.11694779
15	0xbd0c4347	-0.03424385
16	0x3e3f7459	0.18696727
17	0x3d12d653	0.035848927
18	0xbde7e2ac	-0.11322531
19	0x3d7d38fb	0.06182192
20	0xbde4da96	-0.111745045
21	0xbce900f8	-0.028442845
22	0xbdc9be7d	-0.09850786
23	0x3e24c0a2	0.16089109
24	0xbe440b92	-0.19145039
25	0xbde4fd64	-0.11181143
26	0xbd8c425a	-0.06848593
27	0xbe155475	-0.14582999
28	0x3cbb8678	0.022891268
29	0xbe754be8	-0.23954737
30	0x3e604b01	0.21903612
31	0xbe52f88f	-0.2060263
32	0x3e3fbced	0.18724413
33	0x3d255339	0.04036257
34	0xbda148f2	-0.07875241
35	0x3e1978cd	0.14987488
36	0x3d1ad381	0.037799362
37	0x3e48a9b6	0.1959599
38	0x3cd933b7	0.026513917
39	0xbd9ca663	-0.07648923
40	0x3d85756b	0.06516536
41	0xbd86b2c6	-0.06577067
42	0x3dd10b9f	0.10207295
43	0x3e5dbcf8	0.21654117
44	0x3e0f9099	0.14020003
45	0xbdd92636	-0.10602991
46	0x3e0f5e0f	0.14000724
47	0x3d31bffd	0.043395985
48	0x3dfc3f8c	0.12316808
49	0xbe175fe1	-0.14782669
50	0xbe75d9a5	-0.24008806
51	0xbdbfe908	-0.09370619
52	0xbe3e7ebe	-0.18603036
53	0x3e4bc941	0.19900991
54	0x3d8f11a3	0.06985786
55	0x3dcdbec7	0.100461535
56	0x3d9d174d	0.0767046
57	0xbb8a40bd	-0.004219143
58	0x3e425da7	0.18981038
59	0xbe3075ed	-0.17232485
60	0x3c7a32fd	0.015270946
61	0xbe298366	-0.16554031
62	0x3d992995	0.07478634
63	0xbdab0f24	-0.08352497
64	0x3d983370	0.07431686
65	0xbd4ef8c9	-0.05053023
66	0x3e4dfc1e	0.20115706
67	0xbe13338c	-0.14375132
68	0xbe141e8b	-0.14464776
69	0xbe1420d5	-0.1446565
70	0x3e5f61e8	0.21814692
71	0x3da587b8	0.08082527
72	0x3e6efb30	0.23338008
73	0xbe4cf674	-0.2001589
74	0xbe7656bf	-0.24056529
75	0xbe424e1c	-0.18975109
76	0xbe271113	-0.16315107
77	0x3dc9304e	0.098236665
78	0x3db1dc65	0.08684615
79	0x3e4e5d8e	0.20152876
80	0xbe0041f1	-0.12525155
81	0xbe294ebb	-0.1653394
82	0x3e03c5c4	0.1286841
83	0xbdc8c60b	-0.09803399
84	0x3e16bbc4	0.14720064
85	0xbd6bbd98	-0.057553858
86	0x3e0e1241	0.13874151
87	0xbe40f70d	-0.18844242
88	0xbdfaaa84	-0.122395545
89	0x3d976fa3	0.0739434
90	0x3d52048a	0.05127386
91	0xbd7d485a	-0.061836578
92	0x3e1409a7	0.14456807
93	0x3e28d5c4	0.16487795
94	0xbe3419fc	-0.17588037
95	0xbe0496f2	-0.12948206
96	0x3e63691b	0.22208063
97	0xbda79b6b	-0.081839405
98	0xbdb017c7	-0.08598285
99	0xbe704ef3	-0.23467617
100	0xbe0e39f3	-0.13889293
101	0x3d782953	0.060586285
102	0xbd03201d	-0.032013047
103	0xbe34474b	-0.17605321
104	0x3bba6b7e	0.0056890836
105	0xbe29a5d1	-0.1656716
106	0xbe52b46e	-0.20576641
107	0xbe08c2b9	-0.13355531
108	0xbe595d56	-0.21227011
109	0xbe1e2355	-0.15443166
110	0x3e784264	0.24244076
111	0x3d3ba21e	0.045808904
112	0x3d991122	0.07473971
113	0xbe67a360	-0.22620916
114	0xbe231d31	-0.15929104
115	0xbda55574	-0.080729395
116	0x3d1b57d7	0.037925567
117	0xbe5a88bf	-0.21341227
118	0xbdd6052d	-0.10450206
119	0xbe14aee7	-0.14519845
120	0x3a3031ce	0.00067212887
121	0xbdb8d418	-0.09024829
122	0xbc89ae30	-0.016806692
123	0xbe284b32	-0.16434935
124	0xbe2a787f	-0.16647528
125	0xbe10e441	-0.14149572
126	0xbdaa0609	-0.08301932
127	0xbe4405e5	-0.19142874
128	0x3e503d4b	0.20335881
129	0xbd4528c9	-0.0481346
130	0x3e55af63	0.20867686
131	0x3d9ac451	0.07556976
132	0xbe524eb9	-0.20537843
133	0x3e2bdf16	0.1678432
134	0xbd88ab02	-0.06673242
135	0xbdbe672c	-0.09297022
136	0xbe4e2744	-0.20132166
137	0xbe76e7ff	-0.24111937
138	0x3d8e1d67	0.06939202
139	0xbd5901ff	-0.05298042
140	0x3dc161c0	0.094424725
141	0xbe4bd12c	-0.19904011
142	0x3e386318	0.18006551
143	0xbe364e97	-0.17803417
144	0xbd2b89c6	-0.041879438
145	0x3d4f7f1f	0.05065834
146	0x3e0036e8	0.12520945
147	0x3e488031	0.19580151
148	0x3e623e1d	0.22094007
149	0xbe44ed67	-0.19231187
150	0x3d7a0345	0.061038274
151	0xbdd5a62d	-0.10432086
152	0xbcd9ba91	-0.02657822
153	0xbe39e472	-0.18153551
154	0x3e6237b7	0.22091566
155	0xbe364807	-0.17800914
156	0x3e04bc03	0.12962346
157	0x3dae908a	0.085236624
158	0x3da168ea	0.07881339
159	0xbe0645e2	-0.13112596
160	0x3e61be77	0.22045313
161	0x3d5a4e45	0.0532973
162	0x3cff96b7	0.031199796
163	0xbe5add87	-0.21373568
164	0x3dd083ae	0.10181366
165	0xbd1508cb	-0.03638534
166	0xbde38e67	-0.111111455
167	0x3e55532f	0.20832513
168	0x3d5d7bad	0.054073025
169	0xbe0968e7	-0.13418923
170	0xbdfb67e0	-0.12275672
171	0xbc3dc45f	-0.011582463
172	0x3e0aac32	0.1354225
173	0xbd7dda9a	-0.061976053
174	0xbe0db4ba	-0.13838473
175	0xbdaa1887	-0.083054595
176	0xbe398a77	-0.18119226
177	0x3db124db	0.08649608
178	0x3e403ce7	0.18773232
179	0xbe69d014	-0.22833282
180	0x3d66b94e	0.056329064
181	0x3e004c86	0.12529191
182	0x3d342326	0.043978833
183	0xbdb0e448	-0.08637291
184	0x3e01a0b2	0.12658957
185	0x3e0283bd	0.12745567
186	0x3db9bc08	0.09069067
187	0xbd2e90f2	-0.0426187
188	0xbd8387bc	-0.06422374
189	0x3cd48e24	0.025946684
190	0xbd2f7e25	-0.04284491
191	0xbd94055f	-0.07227587
192	0x3e1ec04d	0.15503044
193	0x3e556ffc	0.208435
194	0xbcc4b16d	-0.024010384
195	0xbd5e6cc9	-0.054302964
196	0x3b67f116	0.00353915
197	0xbc6d4349	-0.014481374
198	0x3d6ed4af	0.0583083
199	0x3d8b3217	0.06796663
200	0xbe61924b	-0.22028463
201	0xbdb74e4b	-0.0895048
202	0x3e5125f7	0.20424639
203	0x3dc17f3c	0.09448096
204	0xbc45a473	-0.0120631335
205	0xbe15bc4d	-0.14622612
206	0xbe17f21d	-0.14838453
207	0xbe5e7831	-0.21725537
208	0xbda1e8e6	-0.0790575
209	0x3da7bdf6	0.08190529
210	0x3e1e5b83	0.15464596
211	0x3de554c0	0.111978054
212	0xbe5b8881	-0.21438791
213	0xbe155a2e	-0.14585182
214	0xbd1cc776	-0.03827616
215	0x3e703f5d	0.23461671
216	0x3d0fb4dd	0.035084594
217	0xbd80a256	-0.06280963
218	0x3dcd7f6b	0.10034069
219	0xbdbd3055	-0.09237734
220	0xbe20c009	-0.15698256
221	0x3e3545b1	0.17702366
222	0xbde1db34	-0.11028138
223	0xbd47261c	-0.04862033
224	0xbe7710eb	-0.24127547
225	0x3e2637bb	0.16232197
226	0x3e3c29d9	0.18375339
227	0x3db506b1	0.08839167
228	0xbe2d2c2d	-0.16911383
229	0xbe751ce8	-0.23936808
230	0xbe49b5bc	-0.19698232
231	0x3e393311	0.18085887
232	0x3dee7989	0.11644275
233	0x3e50fe3b	0.20409481
234	0x3e021b42	0.1270571
235	0x3d7b6da6	0.061383866
236	0xbb1ba726	-0.0023750751
237	0xbe3ce069	-0.1844498
238	0xbe54c8f1	-0.20779778
239	0xbe684cc6	-0.22685537
240	0x3dcb55dc	0.09928486
241	0xbdf3dec3	-0.11907723
242	0xbd47edf5	-0.048810918
243	0xbe0eee32	-0.13958052
244	0xbd35068e	-0.044195704
245	0xbe2ecd4d	-0.17070504
246	0xbe2247af	-0.15847658
247	0x3da4c3db	0.08045169
248	0xbd939f0d	-0.07208071
249	0x3e195239	0.14972772
250	0xbd9f5991	-0.07780755
251	0xbe362fa9	-0.17791618
252	0xbd2f476d	-0.042792726
253	0xbdf0c7c3	-0.117568515
254	0xbd97f714	-0.07420173
255	0xbe6c6f2d	-0.23089285

layer_1.bias f4 [400]
0	0xbe0c5081	-0.13702585
1	0x3d6d62d9	0.057955597
2	0xbdc7affa	-0.09750362
3	0x3d743c88	0.05962804
4	0x3dd715b2	0.10502185
5	0xbe18fd8a	-0.14940467
6	0x3d6db85f	0.058037158
7	0x3e75796f	0.23972104
8	0x3c8b678a	0.017017145
9	0xbe304a59	-0.17215861
10	0x3b46d112	0.0030337018
11	0x3d5b13d1	0.053485695
12	0x3d98f21e	0.07468055
13	0xbc8f3b62	-0.01748437
14	0xbd54e736	-0.051978312
15	0xbdf6f8c3	-0.12059166
16	0x3e207cd2	0.15672615
17	0xbe0c4be7	-0.1370083
18	0xbda911b9	-0.082553335
19	0x3e24c8d2	0.16092232
20	0xbde96cf5	-0.11397735
21	0xbd01aa08	-0.031656295
22	0xbdc609f3	-0.096698664
23	0xbe5c2352	-0.21497849
24	0x3def7149	0.11691529
25	0xbddc8f1c	-0.107694834
26	0xbde53729	-0.111921616
27	0xbd5ae6b4	-0.053442672
28	0x3d88178b	0.066451155
29	0x3e5a1150	0.21295667
30	0x3e5baccf	0.2145264
31	0x3b591fd4	0.0033130543
32	0xbe5501c9	-0.20801462
33	0x3c929c92	0.017896924
34	0x3bb7a4dd	0.00560437
35	0x3e51bf5b	0.20483153
36	0xbd4d552b	-0.05013005
37	0xbe695cbb	-0.2278928
38	0x3db474ce	0.08811341
39	0xbd59de86	-0.05319073
40	0x3dad51aa	0.08462842
41	0x3d9574d4	0.07297674
42	0x3db10ec5	0.08645395
43	0x3e096100	0.13415909
44	0xbe2e1c7a	-0.1700305
45	0xbe4a4b65	-0.19755323
46	0x3e688735	0.22707827
47	0x3e6300ea	0.22168317
48	0xbdc413ee	-0.09574114
49	0x3e6dcc6f	0.23222516
50	0x3d441e26	0.047880314
51	0xbd8284c9	-0.06372983
52	0xbe06817f	-0.13135336
53	0xbe042aad	-0.12906905
54	0x3e47478b	0.19460885
55	0xbe18a7bc	-0.14907736
56	0xbdcbbd78	-0.09948248
57	0x3e773d09	0.24144377
58	0xbdf2a616	-0.11848085
59	0x3e745d59	0.23863734
60	0x3dddd4a0	0.108315706
61	0x3df66b8f	0.12032234
62	0x3d623b72	0.055232473
63	0xbd31d5ff	-0.043416973
64	0x3ddd7528	0.108133614
65	0x3d93f2a3	0.07224014
66	0xbe077f20	-0.13232088
67	0xbe4c9888	-0.19980061
68	0xbe49d91e	-0.1971173
69	0xbcf075b9	-0.02935301
70	0x3d8e0f66	0.06936531
71	0xbe1d6a91	-0.15372683
72	0x3d370694	0.044684008
73	0x3e0f112d	0.13971396
74	0x3e1212c3	0.1426497
75	0xbdb99c46	-0.0906301
76	0x3d63ba80	0.055597782
77	0xbe5c33fe	-0.21504208
78	0x3e32ad1b	0.17448847
79	0xbe467c6b	-0.19383399
80	0x3c5c8d14	0.01346137
81	0xbd9c0a2d	-0.076191284
82	0xbe4dec0f	-0.2010958
83	0xbe57466a	-0.21022955
84	0xbe1f8c80	-0.1558094
85	0xbe344c70	-0.17607284
86	0x3e3d8725	0.18508585
87	0xbd189917	-0.037255373
88	0xbe25cf88	-0.16192448
89	0x3a655334	0.0008748055
90	0xbde03b49	-0.10948808
91	0xbd0fdaf1	-0.03512091
92	0x3e559614	0.20858032
93	0xbe5b2fc3	-0.21404938
94	0xbe57c07e	-0.21069524
95	0x3d7376f5	0.05943962
96	0x3e2d1b52	0.16904953
97	0xbe6bf4da	-0.23042622
98	0x3d9c0da6	0.07619791
99	0x3e760f96	0.24029383
100	0xbd1f9a38	-0.038965434
101	0xbe128bed	-0.1431119
102	0x3df3ae5c	0.11898491
103	0x3e0c47f6	0.13699326
104	0xbcce4385	-0.02517868
105	0xbe4a8eaf	-0.19780992
106	0x3c1a1bef	0.009406074
107	0xbe20d5e3	-0.15706591
108	0xbe5405da	-0.20705357
109	0x3e1b0345	0.15137966
110	0x3e2a9244	0.16657358
111	0x3dc76b7d	0.09737299
112	0xbe4aa657	-0.19790016
113	0x3e529f3b	0.20568554
114	0x3e35f1d0	0.17768025
115	0x3e5572bf	0.20844553
116	0xbc840fa6	-0.016120743
117	0xbd37fbb1	-0.044917766
118	0xbe5ebd47	-0.21751891
119	0x3e374576	0.17897591
120	0xbc505d39	-0.0127175385
121	0xbe78544f	-0.24250911
122	0x3e72d569	0.23714222
123	0xbd007202	-0.031358726
124	0x3e155f9d	0.14587255
125	0xbd12a283	-0.035799515
126	0xbd1c4896	-0.03815516
127	0x3e5a783b	0.21334927
128	0x3e4e3478	0.20137203
129	0xbde7d3e0	-0.11319709
130	0x3bf84e67	0.0075777057
131	0x3e28b20d	0.16474171
132	0x3c3ef9f7	0.011656276
133	0xbd3305fc	-0.04370688
134	0x3e5de329	0.21668686
135	0x3e5d2736	0.21596989
136	0xbd852588	-0.06501299
137	0x3e3c09d7	0.18363129
138	0xbcc4c8c5	-0.024021516
139	0x3bec27a4	0.007206874
140	0x3e473981	0.1945553
141	0xbc9a266d	-0.018817151
142	0xbcc5a3e7	-0.024126006
143	0xbd57de3a	-0.052702166
144	0xbe4f5b5d	-0.20249696
145	0x3e404d5a	0.18779507
146	0xbe42d887	-0.19027911
147	0xbe3ea07c	-0.18615907
148	0x3d0674fd	0.032826412
149	0xbcd13d06	-0.025541794
150	0x3c1bc367	0.009507037
151	0x3c9c5197	0.019081874
152	0x3e76265f	0.24038075
153	0xbe7122db	-0.23548453
154	0xbe155282	-0.14582255
155	0x3d374107	0.04473975
156	0xbe5d189b	-0.21591417
157	0xbe44356c	-0.19161004
158	0x3e3e4d61	0.18584205
159	0x3dc054da	0.09391184
160	0xbd9a12e7	-0.075231366
161	0x3d831446	0.06400351
162	0x3d2dc02f	0.04241961
163	0xbcc3bec5	-0.023894677
164	0x3e4e3ce4	0.20140415
165	0xb887c262	-6.473508e-05
166	0x3e303212	0.172066
167	0xbe41517a	-0.18878737
168	0xbdc9d187	-0.09854417
169	0x3d28067b	0.041021805
170	0x3e04aa51	0.12955596
171	0xbdca1a04	-0.09868243
172	0x3e332ba9	0.17497124
173	0xbe4e0a54	-0.20121127
174	0xbdbd78de	-0.09251569
175	0x3e3ab618	0.18233526
176	0xbe3991e2	-0.18122056
177	0xbe68eca0	-0.22746515
178	0xbd7abf35	-0.061217505
179	0xbe4eea13	-0.2020648
180	0x3d93c24c	0.072147936
181	0xbd2ea962	-0.042642005
182	0xbd92360d	-0.071392156
183	0x3e095888	0.13412678
184	0x3c6730e0	0.014110774
185	0xbe5fe876	-0.2186602
186	0xbe6b58a5	-0.22983034
187	0x3e1bfa70	0.15232253
188	0x3dd63542	0.10459377
189	0x3e087a8b	0.13327996
190	0xbe52ee16	-0.20598635
191	0xbd3ff906	-0.046868347
192	0x3e54308d	0.20721646
193	0x3e489aef	0.19590352
194	0x3e28d797	0.16488491
195	0x3e668eea	0.22515455
196	0xbd9ba6ec	-0.07600197
197	0xbe4043fb	-0.18775932
198	0x3e0b9d6a	0.13634267
199	0x3e1e5a0e	0.1546404
200	0xbd9600cd	-0.073243715
201	0xbcb97ab7	-0.022641523
202	0xbc3f5c8f	-0.0116797825
203	0xbe5c4fa8	-0.21514761
204	0xbdcdbc85	-0.10045723
205	0xbd9d6524	-0.07685307
206	0x3db96e54	0.090542465
207	0xbd90ed95	-0.07076565
208	0x3de02d66	0.10946159
209	0x3e5fa1af	0.21839021
210	0xbd53c41c	-0.051700696
211	0xbd722541	-0.05911756
212	0xbe1bfe0d	-0.15233631
213	0xbc97a1d3	-0.018509781
214	0xbe634746	-0.22195157
215	0x3e27defe	0.16393659
216	0x3e563ccf	0.20921634
217	0x3d847a0f	0.06468593
218	0x3e6ae31b	0.22938196
219	0x3dfa3276	0.12216656
220	0x3e24a113	0.1607707
221	0x3e6563a8	0.22401297
222	0xbe2ac0e1	-0.1667514
223	0xbc9be0a1	-0.01902801
224	0x3dba9b9b	0.09111711
225	0xbd84f450	-0.064919114
226	0xbe302c97	-0.1720451
227	0xbd9bf6f1	-0.0761546
228	0xbdf63b06	-0.120229766
229	0xbdae36c5	-0.0850654
230	0xbe3d32a1	-0.18476345
231	0xbd95d512	-0.073160306
232	0x3e0e4df5	0.13896926
233	0xbdda02a5	-0.10645036
234	0x3dd39526	0.10331182
235	0xbe4c3e10	-0.1994555
236	0xbe1c7f9a	-0.15283051
237	0x3ccdede8	0.025137857
238	0x3e65fec2	0.22460464
239	0xbe655c79	-0.22398557
240	0x3dd83512	0.10556997
241	0x3d2dbee9	0.042418394
242	0xbe4aeefc	-0.19817728
243	0xbe3452e3	-0.17609744
244	0x3dfa41dc	0.12219593
245	0xbdf83131	-0.121187575
246	0x3e2e0bcd	0.16996689
247	0xbe2bbf98	-0.16772306
248	0x3e3b9e33	0.18322067
249	0xbdfd6746	-0.123732135
250	0x3dc93643	0.09824803
251	0x3d949e5e	0.07256769
252	0xbe42e190	-0.19031358
253	0xbe023f86	-0.12719545
254	0xbd70a423	-0.058750283
255	0x3a49baa0	0.0007695351

layer_2.weight f4 [300, 400]
0	0xbd0e09c5	-0.034677286
1	0x3ca68f2d	0.020331943
2	0xbd119092	-0.035538264
3	0x3cf91b17	0.030408425
4	0xbbe7f50d	-0.007078773
5	0xbc9598f3	-0.018261408
6	0xbc891d3d	-0.016737575
7	0x3c9c45a0	0.019076169
8	0x3d4895c5	0.048970956
9	0x3c5e900d	0.013584149
10	0x3cfb0fc0	0.030647159
11	0xbd2ca1ab	-0.042146366
12	0xbc4153fa	-0.011799807
13	0xbce7f703	-0.028316027
14	0xbd12fd78	-0.035886258
15	0x3c0ca8c7	0.0085851615
16	0xbc800cda	-0.015631128
17	0x3c3970ed	0.0113184275
18	0xbca2dd83	-0.019881016
19	0xbd3abe77	-0.045591798
20	0xbcd2cbea	-0.025732
21	0xbd44dad2	-0.048060246
22	0x3c316b00	0.010828733
23	0xbd19bff8	-0.03753659
24	0x3d1d6e15	0.03843506
25	0x3cb146ca	0.0216402
26	0xbce5d1fa	-0.028054226
27	0xbc6a1c93	-0.014289039
28	0xbd377d97	-0.044797506
29	0x3d138b32	0.03602142
30	0xbcb72a7a	-0.022359122
31	0xbc2c17ba	-0.010503704
32	0x3b72119a	0.003693676
33	0x3cc6d720	0.024272501
34	0xbc7438da	-0.014906133
35	0x3cc8d127	0.024513794
36	0x3cd2a993	0.025715625
37	0xbbca6fcd	-0.0061778785
38	0x3d07cac8	0.03315237
39	0xbd3397af	-0.04384583
40	0xbcdf0880	-0.027225733
41	0xbb80934d	-0.0039238096
42	0xbba6d133	-0.0050908565
43	0x3c915060	0.017738521
44	0x3d13eb2f	0.03611296
45	0xbd13e1e0	-0.036104083
46	0x3cd6efea	0.026237447
47	0x3c448ee0	0.011996955
48	0x3d2a163d	0.041525114
49	0x3cda9e60	0.026686847
50	0xbc320f7a	-0.010867948
51	0xbbe8530d	-0.0070899785
52	0xbd084987	-0.033273246
53	0x3c34c11a	0.011032367
54	0x3d2043fd	0.03912734
55	0x3c8cf21d	0.017205292
56	0x3d25971b	0.04042731
57	0x3ca3989a	0.019970227
58	0x3c1da07a	0.00962078
59	0xbc3159ed	-0.010824663
60	0xbd30eeba	-0.043196417
61	0xbc199133	-0.009372997
62	0x3d2dd922	0.042443402
63	0x3d32129f	0.04347479
64	0xbc8a939a	-0.016916085
65	0x3d2818cd	0.041039277
66	0x3d28d27d	0.041216362
67	0xbd2ec053	-0.042663883
68	0xbd4a04b3	-0.049320888
69	0xbccc0150	-0.02490297
70	0xbba5c9f3	-0.0050594746
71	0x3c9eaa7d	0.019368405
72	0x3cab7fd0	0.02093497
73	0x3d01be2a	0.031675495
74	0xbcc89840	-0.024486661
75	0x3d08fb57	0.03344282
76	0x3c3ac453	0.011399346
77	0xbd11645b	-0.035496097
78	0xbd175b28	-0.036952168
79	0x3c919d87	0.01777531
80	0x3d3eafc2	0.046554334
81	0xbd07f8ea	-0.033196367
82	0x3bc222e7	0.005924571
83	0xbd41e187	-0.04733422
84	0x3d0565d7	0.032567825
85	0x3c7185b3	0.014741349
86	0xbc50a6cd	-0.012735081
87	0x3cd86857	0.02641694
88	0x3ca9df80	0.020736456
89	0x3d0a0ac7	0.033701684
90	0x3ba3da5a	0.005000395
91	0x3a016267	0.00049356226
92	0x3cc48cd0	0.023992926
93	0x3c8a2310	0.016862422
94	0xbd2d9518	-0.042378515
95	0xbc9d39a0	-0.019192517
96	0x3cfd3e9a	0.03091364
97	0xbcd0a2d7	-0.025468273
98	0x3d1e6bd7	0.038677063
99	0xbc1d32e7	-0.009594656
100	0x3d442a32	0.047891803
101	0xbcf0c697	-0.02939157
102	0x3d10d7c7	0.03536203
103	0xbcb4e370	-0.022081107
104	0x3d10d3c8	0.03535822
105	0x3ce22a9d	0.02760821
106	0x3ca4f027	0.020134045
107	0x3c6fb773	0.01463114
108	0x3cf4b2a7	0.029870344
109	0xbca3453d	-0.019930476
110	0xbc84115a	-0.016121555
111	0x3c5e8f93	0.013584035
112	0xbd1142dd	-0.035464156
113	0x3b42bb33	0.002971363
114	0x3caaf217	0.02086739
115	0xbd3a104a	-0.04542569
116	0xbb308e1a	-0.0026940168
117	0x3b39a7cd	0.0028328777
118	0xbd1dab8d	-0.03849368
119	0x3d20c785	0.039252777
120	0x3b14474d	0.0022625506
121	0xbd40b755	-0.04704984
122	0xbc8e13a0	-0.017343342
123	0x3c147480	0.009060979
124	0x3d145c8a	0.036221065
125	0xbc844803	-0.01614762
126	0x3d332452	0.04373581
127	0xbcad413d	-0.021149272
128	0xbd251700	-0.040305138
129	0xbc5fd1cd	-0.01366086
130	0xbd05a47b	-0.032627564
131	0x3c8821b3	0.016617632
132	0x3d073def	0.03301805
133	0xbd2cddb7	-0.04220363
134	0xbd15eccd	-0.036602784
135	0x3ce3a6f0	0.027789563
136	0xbc2fba5a	-0.010725582
137	0x3d3abedd	0.045592178
138	0x3d39ed68	0.045392424
139	0xbd07e84f	-0.03318053
140	0x3cf1434d	0.029451037
141	0xbd458168	-0.048219115
142	0x3ca4e360	0.020127952
143	0xbce9b177	-0.028527005
144	0xb994e667	-0.00028400423
145	0x3d46e17a	0.048554875
146	0x3bde30a7	0.006780702
147	0xbcdc2680	-0.026873827
148	0x3cbc3f1a	0.022979308
149	0xbc03b63a	-0.008039052
150	0x3d37cd3f	0.044873472
151	0xbd1928a3	-0.03739227
152	0xbc0b4813	-0.008501071
153	0xbd2c1188	-0.042008907
154	0xbce8559a	-0.02836113
155	0xbc69ca27	-0.014269388
156	0xbd071e8f	-0.032988127
157	0xbd0b8625	-0.034063477
158	0xbc4b3b47	-0.01240427
159	0xbce9f4fa	-0.028559197
160	0xbcf8317a	-0.03029703
161	0x3b310a33	0.0027014136
162	0xbd19cef0	-0.037550867
163	0x3cebf12d	0.028801525
164	0x3d06f4e7	0.0329484
165	0x3d3c6fcd	0.04600506
166	0x3c7dd72d	0.015493196
167	0xbb9ab38d	-0.004721111
168	0xbc0f20e7	-0.008735872
169	0xbcc2b6f3	-0.023768878
170	0x3d0b4bba	0.034007765
171	0x3ce2d217	0.02768807
172	0x3d13e28a	0.036104716
173	0xbc1f0b6d	-0.009707314
174	0xbd0d7d92	-0.03454358
175	0x3c889ddd	0.016676838
176	0x3d3385e8	0.043828875
177	0xbc01f0ad	-0.007930917
178	0x3d2565d3	0.04038031
179	0x3d109cad	0.035305668
180	0x3c900263	0.017579263
181	0xbc5d8d27	-0.013522423
182	0xbc895c23	-0.016767567
183	0xbc0f6e3a	-0.008754307
184	0xbb75e8cd	-0.0037522793
185	0xbc289b9a	-0.010291005
186	0xbd477e97	-0.04870471
187	0xbd0c774a	-0.03429345
188	0xbc81e4ad	-0.015856111
189	0x3d1d5ef2	0.038420625
190	0x3ca93d67	0.020659162
191	0xbd3a857a	-0.04553745
192	0xbd129f4a	-0.03579644
193	0xbcf053fd	-0.029336924
194	0x3d4239fd	0.047418583
195	0x3c4acf60	0.012378544
196	0x3d240bb7	0.040050235
197	0xbd2560f7	-0.040375676
198	0x3d3f50f8	0.046708077
199	0x3d26a65d	0.040686
200	0x3b634e67	0.0034684183
201	0xbcbf8cbd	-0.023382539
202	0x3ca08ea0	0.019599259
203	0xbcdc1750	-0.026866585
204	0xbca9cd23	-0.0207277
205	0x3c99a6bd	0.018756265
206	0xbd1d4d32	-0.038403697
207	0x3c475a87	0.0121675795
208	0xbb2ec100	-0.002666533
209	0x39f41ccd	0.00046560765
210	0x3b162500	0.0022910237
211	0x3c458613	0.012055892
212	0xbcf4d25d	-0.029885465
213	0x3ca895dd	0.020579273
214	0xbd401ea5	-0.046904225
215	0x3cac4f00	0.021033764
216	0xbd266af0	-0.040629327
217	0x3d45176b	0.048118036
218	0x3c45016d	0.012024266
219	0x3c62ed1a	0.013850475
220	0x3c59a147	0.01328308
221	0x3c1f27d3	0.009714085
222	0xbc9ca2d0	-0.019120604
223	0xbd4746b3	-0.04865141
224	0x3cf4f480	0.029901743
225	0x3cf80fa3	0.030280894
226	0xbc15e040	-0.009147704
227	0x3b2445e7	0.002506608
228	0xbb529b80	-0.0032136142
229	0xbc38fdf3	-0.011291015
230	0x3d0bbac2	0.034113653
231	0xbcf4e343	-0.029893523
232	0xbd3f5dca	-0.046720304
233	0xbc076d47	-0.0082658
234	0xbceeceb7	-0.029151304
235	0xbd07420f	-0.033021983
236	0xbc6b668d	-0.014367712
237	0xbafc2dcd	-0.0019239724
238	0x3d06859a	0.032842256
239	0x3ce67eea	0.02813669
240	0x3d26b482	0.04069949
241	0x3d194518	0.03741941
242	0x3c7660fa	0.015037769
243	0xb9aae667	-0.0003259659
244	0xbad14067	-0.0015964628
245	0xbd1b7055	-0.037948925
246	0x3b9c305a	0.004766506
247	0xbc3f8dd3	-0.011691528
248	0xbc61a13a	-0.01377135
249	0x3d2c28b5	0.04203101
250	0x3cbbf1a3	0.02294237
251	0x3d007f6f	0.03137153
252	0x3d044978	0.032296628
253	0xbced27ad	-0.028949583
254	0x3c6c69cd	0.014429522
255	0xbbcd874d	-0.0062722326

layer_2.bias f4 [300]
0	0x3d4492d2	0.04799158
1	0xbcd62087	-0.026138557
2	0x3d038203	0.03210641
3	0x3d45d81f	0.048301812
4	0x3cfccf33	0.030860519
5	0xbcc7f9aa	-0.024411041
6	0xbd44d167	-0.048051264
7	0x3d1f3a75	0.03887411
8	0xbd39acef	-0.045330938
9	0x3d291603	0.041280758
10	0x397b899a	0.00023988486
11	0x3cdcfeca	0.026976962
12	0xbc20d880	-0.009817243
13	0xbc40fb5a	-0.011778677
14	0xbcc6db8a	-0.024274606
15	0xbc8ae2d3	-0.016953861
16	0xbd42b6ad	-0.047537494
17	0x3cac3917	0.021023316
18	0x3cb347ed	0.021884883
19	0x3c59cefa	0.013293976
20	0xbd3a4a15	-0.045480806
21	0x3ca1681d	0.019702965
22	0x3cfb7cdd	0.030699188
23	0xbcf703aa	-0.030153114
24	0x3cca619a	0.024704743
25	0xbd4be80b	-0.04978184
26	0x3d03f8b0	0.03221959
27	0x3d0f8c48	0.035045892
28	0xbaf55100	-0.0018716156
29	0xbd085abf	-0.033289667
30	0xbbea6e00	-0.0071542263
31	0xbcf2a7a3	-0.029620951
32	0xbd407f47	-0.04699638
33	0xbd0fc783	-0.03510238
34	0xbc584147	-0.013199157
35	0xbc3581a7	-0.011078275
36	0x3b5abbe7	0.0033376159
37	0xbd24ac6a	-0.04020349
38	0xbca2bf17	-0.01986651
39	0xbd23103f	-0.039810415
40	0xbd3d6733	-0.046240997
41	0x3d43f595	0.047841627
42	0xbcbd72f7	-0.023126109
43	0x3ca6d9f3	0.020367598
44	0x3d165435	0.0367014
45	0x3cb3559d	0.02189141
46	0xbc2fd4c7	-0.010731882
47	0x3c0af66d	0.008481604
48	0xbd36c05b	-0.04461704
49	0x3c9b70aa	0.01897462
50	0xbcd3021a	-0.025757838
51	0x3d3b3b4f	0.045710858
52	0xbd448e87	-0.047987487
53	0xbce71d67	-0.028212262
54	0x3c713a53	0.014723378
55	0x3c035360	0.008015484
56	0x3ce59550	0.0280253
57	0x3ccfefc3	0.025382882
58	0x3cd22ec0	0.025657058
59	0x3d03c6b7	0.03217193
60	0x3d4c721d	0.049913514
61	0xbc567d07	-0.013091332
62	0x3cb52473	0.022112107
63	0xbcccee1d	-0.025015885
64	0x3cfc2c37	0.030782802
65	0xbd3888bf	-0.045052286
66	0x3d08574b	0.033286374
67	0xbd2e95a7	-0.04262319
68	0x3d4a304f	0.049362477
69	0xbd43695a	-0.047707893
70	0x3d444b0f	0.047923144
71	0x3d13e9ef	0.03611177
72	0x3bc5f55a	0.006041211
73	0x3cab90bd	0.02094304
74	0x3baa769a	0.0052021267
75	0x3cd9242d	0.026506508
76	0x3d3cb357	0.04606947
77	0xbd14cb6a	-0.036326803
78	0x3ab7ac33	0.0014013111
79	0xbd00612a	-0.031342663
80	0x3d0d51b8	0.03450176
81	0xbd23ffc3	-0.040038835
82	0xbca3832d	-0.01996001
83	0x3d2404d0	0.040043652
84	0x3c93bec7	0.018035306
85	0x3c59ecf3	0.013301122
86	0xbc36299a	-0.011118317
87	0xbcc73750	-0.024318367
88	0xbcb1547a	-0.021646727
89	0x3ca97303	0.020684725
90	0x3c2c119a	0.010502243
91	0x3c1adb53	0.009451705
92	0xbb5dd14d	-0.0033846677
93	0x3d297dd7	0.041379776
94	0xbcbd6510	-0.02311948
95	0xbbcd731a	-0.0062698247
96	0x3d1a6df7	0.037702527
97	0xbc0c2cc7	-0.008555598
98	0xbd1594d5	-0.03651889
99	0xbc619ba7	-0.013770021
100	0x3cdcd130	0.026955217
101	0x3cf4acba	0.029867519
102	0xbcc92fc3	-0.024558907
103	0xbbf8e7da	-0.0075959982
104	0x3b034f67	0.002003634
105	0x3bbd8427	0.005783576
106	0x3ce2236d	0.027604783
107	0x3cda157a	0.026621569
108	0x3d10ceca	0.03535346
109	0x3bb1bdcd	0.0054242373
110	0xbd0dcfbd	-0.034621943
111	0x3d2be952	0.04197056
112	0xbad84c00	-0.0016502142
113	0xbc4c5d0d	-0.012473357
114	0xbd0a1a48	-0.03371647
115	0xbc976a43	-0.018483287
116	0x3d14bd7f	0.03631353
117	0x3cac8f27	0.021064354
118	0x3d124795	0.035712797
119	0x3d0253a8	0.031818062
120	0xbcb72027	-0.022354199
121	0x3d173dfd	0.03692435
122	0xbcce3157	-0.025170011
123	0x3cf8b077	0.030357582
124	0xbd33ec3b	-0.04392646
125	0x3cb6bb57	0.022306127
126	0xbd2ca290	-0.04214722
127	0xbd1fe1f2	-0.039033838
128	0x394e4b33	0.00019673705
129	0xbd266c6d	-0.040630747
130	0x3cada13a	0.021195043
131	0xbcf9e903	-0.030506616
132	0x3cc702f0	0.024293393
133	0x3c7cb8fa	0.015424961
134	0x3d4534a0	0.04814589
135	0xbd317a4d	-0.043329526
136	0xbd09c815	-0.03363808
137	0x3cf1ef87	0.02953316
138	0x3d1fceb8	0.0390155
139	0xbc8cd2a3	-0.017190283
140	0xbb9cfd40	-0.004790932
141	0x3d2a3b60	0.04156053
142	0x3d4be15b	0.049775463
143	0xbcbcbbe7	-0.023038818
144	0x3d487ab7	0.048945155
145	0xbd14d8d0	-0.03633958
146	0xbd3b4055	-0.04571565
147	0x3cfc8fba	0.030830253
148	0xbc9b27b0	-0.018939823
149	0xbd327833	-0.043571662
150	0xbccff6d0	-0.025386244
151	0x3b07ba9a	0.0020710588
152	0x3d0e6660	0.0347656
153	0x3c0600b3	0.008178878
154	0x3d012790	0.03153187
155	0x3d3d580b	0.046226542
156	0x3bef279a	0.007298422
157	0xbc690787	-0.014222986
158	0xbd1e257a	-0.03860996
159	0xbc19ffed	-0.009399396
160	0x3d234838	0.039863795
161	0xbc1a2227	-0.009407557
162	0xbd3a81d3	-0.045533966
163	0xbd49b2b0	-0.049242675
164	0xbc9657b0	-0.01835236
165	0x3bf85b5a	0.0075792493
166	0xbcad5a1a	-0.021161128
167	0x3cb8d847	0.022564067
168	0xbc461a47	-0.012091226
169	0x3d34362b	0.04399697
170	0x3d471773	0.048606347
171	0xbcb4c8ad	-0.022068346
172	0xbd00643a	-0.031345583
173	0x3c2efde0	0.010680646
174	0xbbb35727	-0.005473036
175	0xbd17fd15	-0.037106592
176	0x3d3c5e73	0.04598851
177	0xbc9f1d50	-0.019423157
178	0xbd479550	-0.04872638
179	0xbd406c1a	-0.046978094
180	0x3c936880	0.017994165
181	0xbcfd3ca7	-0.03091271
182	0x3d1d7128	0.038437992
183	0xbd4b0065	-0.049560923
184	0x3d18c880	0.037300587
185	0x3ca47c9d	0.020078951
186	0xbd14b872	-0.036308713
187	0x3c838920	0.016056597
188	0x3ccfaadd	0.025350029
189	0xbca62263	-0.020280069
190	0xbce9300a	-0.02846529
191	0x3ce96867	0.028492166
192	0x3c58be80	0.0132290125
193	0xbd0a7ab8	-0.03380844
194	0x3cc666ba	0.024218906
195	0x3c4fd46d	0.012684924
196	0xbc295827	-0.010335959
197	0xbccc485d	-0.02493685
198	0x3cee72ba	0.02910744
199	0x3c9a7a90	0.01885727
200	0x3c82f8fa	0.015987862
201	0xbbd7c51a	-0.0065847756
202	0xbbb9104d	-0.005647695
203	0x3c541160	0.012943596
204	0xbca5a67d	-0.02022099
205	0x3d1ecbf7	0.038768735
206	0x3ce64643	0.028109675
207	0xbd1e178f	-0.038596686
208	0xbc8613c0	-0.01636684
209	0xbd0adbcb	-0.033901017
210	0x3d47aeb3	0.04875059
211	0xbbfc750d	-0.007704383
212	0x3c36122d	0.011112732
213	0x3c8ed500	0.01743555
214	0xbc0129c7	-0.007883496
215	0xbc865680	-0.016398668
216	0x3c955170	0.018227309
217	0x3c78acc7	0.015177912
218	0xbcd4158a	-0.025889177
219	0xbcbfcdf0	-0.023413628
220	0xbd2016b0	-0.039084136
221	0xbc44b333	-0.012005615
222	0xbd153bc5	-0.036433954
223	0x3d2edcf5	0.04269119
224	0x3d4b613a	0.04965327
225	0xbc08a187	-0.008339292
226	0x3cabe9e7	0.020985557
227	0x3d1d58ad	0.038414646
228	0x3c48dc7a	0.012259597
229	0xbc0226cd	-0.007943821
230	0xbce1b27d	-0.02755093
231	0x3c991ef3	0.018691516
232	0x3ce18043	0.02752698
233	0x3d0a55e5	0.03377332
234	0xbd333187	-0.043748405
235	0x3d2b1957	0.041772213
236	0x3d0543cd	0.032535363
237	0x3d02d5c0	0.03194213
238	0x3cfcc683	0.030856377
239	0xbd1f6b18	-0.038920492
240	0x3c059af3	0.008154619
241	0xba881467	-0.0010382057
242	0x3d324b8b	0.043529075
243	0xbc8945b7	-0.016756875
244	0xbd3f4fb3	-0.046706866
245	0xbc4228fa	-0.01185059
246	0xbd202a80	-0.03910303
247	0xbcfcf9e3	-0.030880874
248	0x3d4c40b8	0.049866408
249	0x3d310b35	0.04322358
250	0xbc681160	-0.014164299
251	0x3b84c95a	0.0040523233
252	0xbbfb9573	-0.007677728
253	0x3d4ba83b	0.049720984
254	0x3cd0c1a0	0.025482953
255	0xbd06b9f2	-0.032892175

layer_3.weight f4 [6, 300]
0	0x3d58da1e	0.052942388
1	0xbd3d59bc	-0.046228155
2	0xba12e736	-0.0005603911
3	0xbcf171d9	-0.029473232
4	0xbd48a7ca	-0.04898814
5	0xbd2410aa	-0.040054955
6	0x3ce3cad8	0.027806684
7	0xbd13ddc8	-0.03610018
8	0x3bfac93c	0.0076533835
9	0x3ccfbeb1	0.025359483
10	0x3c4ddcfe	0.012564896
11	0xbd46c713	-0.048529696
12	0xbd513c5b	-0.05108295
13	0xbb19ea4f	-0.0023485606
14	0xbd403afe	-0.04693126
15	0x3d205f20	0.03915322
16	0xbce6f5c3	-0.02819336
17	0xbd45bcde	-0.04827582
18	0x3c9d64ba	0.01921307
19	0x3c0d9bda	0.008643115
20	0xbd2ff804	-0.042961136
21	0x3d24ab76	0.04020258
22	0x3cebd95f	0.028790174
23	0x3bf6952b	0.0075251064
24	0x3abeb6d1	0.0014550333
25	0xbcbdff4b	-0.023193022
26	0xbd00e54e	-0.031468682
27	0xbd5d5f63	-0.054046046
28	0x3cf26e23	0.029593533
29	0x3d5ecb11	0.054392878
30	0xbce4e082	-0.027939085
31	0xbc68a740	-0.014200032
32	0xbcc19779	-0.023631798
33	0x3cfa1f00	0.03053236
34	0x3d1f4ed3	0.038893532
35	0x3cd36186	0.025803339
36	0xbb562755	-0.0032677252
37	0x3ba328cf	0.00497923
38	0xbd19cce4	-0.037548915
39	0xbcdbaad3	-0.026814854
40	0xbc0e0ec6	-0.008670514
41	0x3d45c0d6	0.048279606
42	0x3c9e2804	0.01930619
43	0x3ccc48e8	0.024937108
44	0xbcb13e1e	-0.021636065
45	0xbc8c6145	-0.017136225
46	0x3d5cd4fa	0.053914048
47	0x3d404338	0.046939105
48	0xbd2d7ab8	-0.04235336
49	0x3d143d2b	0.036191147
50	0x3d4cdd3a	0.050015666
51	0x3cdbe088	0.026840463
52	0x3cb33929	0.021877842
53	0xbc5a9238	-0.013340525
54	0xbd678aa7	-0.056528714
55	0x3c8d9e77	0.017287476
56	0x3d441260	0.047869086
57	0xbcf9f5b1	-0.030512663
58	0xbb2bdffb	-0.0026226032
59	0xbd258961	-0.040414218
60	0x3d1903d4	0.037357166
61	0xbd42afb4	-0.047530845
62	0xbd056572	-0.03256745
63	0x3d545e4d	0.051847745
64	0xbd09b3b5	-0.033618648
65	0x3be09654	0.006853858
66	0x3c49ed0e	0.012324585
67	0xbd00cff7	-0.03144833
68	0x3cfbdee5	0.030745933
69	0xbbafc054	-0.0053635035
70	0xbd3d7448	-0.046253473
71	0x3c42d1bd	0.011890826
72	0xbc8dd175	-0.017311791
73	0x3cfa72c3	0.0305723
74	0xbc451f28	-0.012031354
75	0x3bd04ef5	0.0063570687
76	0x3d33b262	0.04387129
77	0x3d36357a	0.044484593
78	0xbca6334f	-0.020288138
79	0xbd341849	-0.043968473
80	0xbd35575b	-0.04427276
81	0xbcb39efa	-0.021926392
82	0xbc9d393d	-0.019192332
83	0x3d2410d5	0.040055115
84	0x3d004645	0.031317014
85	0xbd3a63dd	-0.045505393
86	0xbd1416a7	-0.036154415
87	0x3c0e7b49	0.008696386
88	0xbd59487b	-0.05304764
89	0xbc166063	-0.009178254
90	0xbbde08a7	-0.006775934
91	0xbd3c532c	-0.045977756
92	0xbcf42918	-0.029804751
93	0x3d02ca7a	0.031931378
94	0x3d2d9a88	0.0423837
95	0xbd16bc07	-0.03680041
96	0xbd3d89b3	-0.0462739
97	0x3d0476db	0.032339912
98	0xbadeeb26	-0.0017007336
99	0x3d43cdc6	0.047803663
100	0x3d51256f	0.05106109
101	0x3c0139c4	0.007887308
102	0xbd32c934	-0.043648914
103	0xbd30b1c7	-0.04313829
104	0xbc3f0b5f	-0.011660426
105	0x3c495b98	0.012289904
106	0x3d2aba55	0.041681606
107	0x3d2c4b14	0.042063788
108	0xbb93db15	-0.0045122006
109	0x3bac6249	0.00526074
110	0xbd172f69	-0.03691045
111	0x3cbd8e85	0.023139248
112	0xbd2d5430	-0.042316616
113	0xbba0633f	-0.0048946436
114	0x3a6af2f7	0.0008962596
115	0xbaa6ea9e	-0.0012734716
116	0x3d63bda3	0.055600774
117	0x3ca4d6b4	0.02012191
118	0x3d22632b	0.039645355
119	0x3c8f8770	0.017520636
120	0x3d6c6471	0.057712976
121	0x3c8e2d81	0.017355682
122	0x3c6610af	0.014042064
123	0xbc34bdeb	-0.011031608
124	0x3ca83c35	0.020536521
125	0x3d6c3c5d	0.057674754
126	0x3d0268b5	0.031838138
127	0xbb744776	-0.003727404
128	0xbd17c3d5	-0.037051994
129	0x3d1c2264	0.038118735
130	0xbd1ffcd1	-0.039059464
131	0xbc3f585c	-0.011678781
132	0x3c3887b1	0.01126282
133	0xbcf750e5	-0.03018994
134	0x3c2753a3	0.010212812
135	0xbccbda0e	-0.02488425
136	0xbc30cd7d	-0.01079118
137	0xbcd3c3e8	-0.025850251
138	0x3c73813b	0.014862354
139	0xbc9c66da	-0.019092012
140	0x3d488563	0.048955332
141	0xbd0f5556	-0.034993492
142	0x3b91c3f0	0.0044484064
143	0xbd51ba75	-0.05120321
144	0x3d309e68	0.043119818
145	0xbbe607d2	-0.007019975
146	0xbca078d7	-0.01958887
147	0xbd1e73be	-0.0386846
148	0x3c722b9c	0.014780905
149	0x3cc0b535	0.023523906
150	0xbd000a76	-0.031259976
151	0xbcabb6ea	-0.020961244
152	0x3cfe33ce	0.031030562
153	0xbc9e98fd	-0.01936006
154	0xbc994c88	-0.01871325
155	0xbcff50a0	-0.031166375
156	0x3c862e94	0.016379632
157	0x3c54cc60	0.01298818
158	0x3d362d82	0.044476993
159	0xbbaaa3d2	-0.005207517
160	0xbcf9f2ce	-0.030511286
161	0xbd38da41	-0.04513002
162	0x3d591909	0.05300239
163	0xbbb879a2	-0.005629734
164	0x3d4e7692	0.050406046
165	0xbbffb24c	-0.007803237
166	0x3d56f56b	0.052480143
167	0xbcd1b36d	-0.025598252
168	0x3d65523d	0.05598663
169	0x3d2bedce	0.041974835
170	0x3d5d3ae3	0.054011237
171	0xbc8b485f	-0.017002283
172	0xbd35633c	-0.04428409
173	0x3d56d893	0.052452635
174	0xbd466436	-0.048435412
175	0xbd0d86f5	-0.034552533
176	0x3cee181f	0.029064236
177	0x3d46e786	0.04856064
178	0x3ca435bd	0.020045156
179	0xbc7c085d	-0.015382853
180	0xbca5abe4	-0.020223565
181	0xb8948d5e	-7.0835216e-05
182	0xbcefb47f	-0.029260872
183	0x3cc28df5	0.023749331
184	0x3d22f5e8	0.039785296
185	0xbd6859e1	-0.05672634
186	0xbd58ac94	-0.05289896
187	0x3d5b92af	0.053606685
188	0xbc4d64b4	-0.0125362165
189	0x3d63a4ba	0.055577017
190	0x3d1c956e	0.038228445
191	0x3c323105	0.010875945
192	0x39720dd9	0.00023084077
193	0xbc80cb5d	-0.015721971
194	0xba9115a3	-0.001106907
195	0xbc984529	-0.018587666
196	0xbcb6d021	-0.02231604
197	0xbd41c2bd	-0.047304858
198	0x3c193d22	0.009352954
199	0xbcd092f1	-0.025460692
200	0x3bcd8655	0.006272117
201	0x3d15c428	0.036564022
202	0x3d3b89ba	0.045785643
203	0xbcae644a	-0.021288056
204	0x3c5cf07e	0.013485072
205	0xbccedf88	-0.025253072
206	0xbcce1782	-0.025157694
207	0x3bfb7a8a	0.00767452
208	0xbcab1e26	-0.0208884
209	0x3d2bc3e8	0.041934878
210	0x3d42c89e	0.047554605
211	0x3c89cfaa	0.016822655
212	0x3cf2801b	0.029602101
213	0x3ceda7f5	0.029010752
214	0x3993138d	0.0002805259
215	0xbd1e73ea	-0.038684763
216	0x3cf9ae72	0.03047869
217	0x3c8d8469	0.017275052
218	0x3b8cc3d6	0.0042958064
219	0x3a6e1f69	0.000908366
220	0x3d4633ad	0.048389126
221	0x3d4a04a6	0.04932084
222	0xbbc0c339	-0.0058826474
223	0x3d1b0fdb	0.037856918
224	0x3d536780	0.051612377
225	0x3cdeb450	0.02718559
226	0xbcd92c00	-0.026510239
227	0xbd5d37b7	-0.054008212
228	0x3d6a52f5	0.05720802
229	0xbbb2a726	-0.0054520546
230	0x3d18ce92	0.037306376
231	0xbc5d469b	-0.013505603
232	0x3d4752f9	0.048663113
233	0x3cd372e3	0.025811618
234	0xbcfa522b	-0.030556759
235	0x3c70ac74	0.0146895535
236	0xbcc62d78	-0.024191603
237	0xbd5ae84f	-0.053444203
238	0x3ccffdb6	0.025389533
239	0x3d1d39a4	0.03838505
240	0xbc911d97	-0.017714305
241	0xbd582b27	-0.05277553
242	0x3c8581aa	0.01629718
243	0x3b8048b9	0.003914919
244	0xbd66122f	-0.056169685
245	0xbd517caa	-0.05114428
246	0x3d560d8e	0.05225902
247	0xbc01a89e	-0.007913737
248	0x3d4a7f82	0.049438007
249	0x3cc0a684	0.0235169
250	0x3cfef182	0.03112102
251	0x3d574e81	0.0525651
252	0x3d42660c	0.0474606
253	0xbcc7a7d3	-0.024372017
254	0x3b738133	0.0037155866
255	0x3cbbae87	0.02291037

layer_3.bias f4 [6]
0	0xbd18f873	-0.037346315
1	0x3c13232b	0.008980553
2	0xbd2eac0b	-0.04264454
3	0xbd5a01b3	-0.053224277
4	0x3d5a9084	0.053360477
5	0xbb9be5cc	-0.0047576185
