mujoco_env/vector/032/pytorch_models/TD3_HalfCheetah-v3_42-41_actor.pth (torch, 519525 bytes, 6 tensors)

layer_1.weight f4 [400, 17]
0.13909483 0.62817246 -0.34294623 0.10297624 -0.27066892 -0.54839945 -0.04215466 0.17298569
0.55648893 -0.2994916 0.23681982 -0.06473169 -0.0061463946 -0.058074836 -0.044110037 0.041792933
0.009242407 0.720827 -0.7189547 -0.13332698 -0.5730513 0.029501652 0.21456644 -0.08431543
-0.25212464 0.010765988 0.42759746 0.09832549 0.10118138 0.007824414 -0.10734472 -0.0027449708
0.0030048115 0.10350009 0.22666042 -0.0053826272 0.15522237 -0.11979961 0.06421761 -0.08086921
0.2919678 0.24331832 0.67377985 0.23103783 0.20799527 0.06182983 0.17841266 -0.0095265675
-0.014145822 0.04160747 -0.009941352 0.12962319 -0.3384842 0.686674 0.050197944 0.99005884
0.30670664 0.52044725 -0.0076382505 -0.26094863 0.25355318 -0.0049926047 0.016211359 0.018827809
-0.0767644 -0.038773585 -0.074547715 -0.029352397 0.69754547 -0.31331137 0.6112836 -0.23690516
0.22374855 0.03947517 0.08306504 -0.276224 -0.5996923 0.2888548 0.14760563 -0.0028833798
0.043991808 -0.07287128 0.0024692307 -0.038698386 0.011965132 0.09569476 0.12615325 -0.13393775
-0.6040682 1.0204331 0.43478206 -0.013914732 -0.29509425 0.1634428 -0.030412335 -0.28355616
-0.051007513 -0.05684077 -0.019478764 0.017982243 -0.116340965 -0.10139433 0.47197497 -0.6759735
0.18851432 -0.18107878 -0.09458349 -0.048121635 -0.18716894 0.1785935 0.42996073 0.45059803
-0.22341815 -0.014371936 -0.09713102 -0.14106692 0.11973544 0.11311015 -0.11265527 -0.24420637
0.2917381 0.52906543 -0.46157056 -0.33469713 -0.12398128 0.052634194 -0.029559353 -0.085719794
0.6584047 0.25928557 -0.08686811 0.15591116 0.017246047 -0.031055981 0.04751373 0.03737552
-0.024128802 -0.9668863 -0.018643713 -0.6457402 0.08252579 -0.40318772 0.09422212 -0.08235698
-0.056391943 0.23518875 0.41055286 0.04108839 0.08639982 -0.023866057 0.021903833 -0.07675949
-0.014712421 0.0019154288 0.46920735 -0.3883215 -0.02467354 0.13838261 -0.5031205 0.05386423
0.3597446 0.52065516 0.037996545 0.09279821 -0.05649208 -0.010111733 -0.02597663 0.013267891
-0.011361572 0.023542972 0.05020176 -0.6474343 -0.022912152 -0.20316605 -0.13390881 -0.5415394
-0.42831185 -0.021863552 0.24759161 -0.16658697 0.26270765 0.0490953 -0.14131089 -0.008757251
0.07685817 0.10669159 0.17124873 0.6701234 -0.40286294 0.82098055 -0.5516844 0.2914063
0.6419314 0.19448663 -0.35637718 -0.45447692 0.6085536 -0.050432555 -0.03290633 -0.13749415
-0.026490068 -0.10644972 -0.09822212 -0.10882114 0.019643713 -1.2754674 0.3556549 -0.5710266
0.538796 0.44170782 -0.08817163 0.26514035 -0.47576797 0.20378177 0.35557482 0.047762264
0.087765634 -0.0951997 0.051544636 -0.045907665 0.091115385 0.6812537 -0.17464425 -0.15988953
-0.15289716 -0.028632008 0.019453667 0.09103444 0.023591788 0.1395809 -0.26075706 0.36977953
0.18331541 0.16706604 -0.07453547 0.027654218 0.028601356 -0.02282051 -0.09660015 -1.2794162
0.7502367 -0.13891926 0.7598701 0.23201682 0.5087382 -0.22841667 -0.62933606 0.16562715
-0.101641834 -0.04716971 -0.028737811 -0.023159089 -0.054880682 -0.040852915 0.036284707 0.085546166
00000000: e06e 0e3e e9cf 203f a696 afbe 35e5 d23d
00000010: 1e95 8abe e863 0cbf 5daa 2cbd 2923 313e
00000020: 0f76 0e3f f756 99be e580 723e 0c92 84bd
00000030: b267 c9bb e1df 6dbd baac 34bd 112f 2b3d
00000040: 776d 173c 1e88 383f 6a0d 38bf de86 08be
00000050: 7db3 12bf 73ad f13c 4eb7 5b3e 91ad acbd
00000060: 7b16 81be d463 303c 0eee da3e e05e c93d
00000070: 2f38 cf3d f931 003c 8cd7 dbbd f8e4 33bb
00000080: 5fec 443b dbf7 d33d ab19 683e c060 b0bb
00000090: 9df2 1e3e 7f59 f5bd 8684 833d c29e a5bd
000000a0: ce7c 953e 7028 793e d67c 2c3f 2e95 6c3e
000000b0: b6fc 543e 4741 7d3d cfb1 363e 5215 1cbc
000000c0: e1c3 67bc 986c 2a3d 0de1 22bc f1bb 043e
000000d0: cd4d adbe dec9 2f3f 5c9c 4d3d 7f74 7d3f
000000e0: a708 9d3e 083c 053f 4a4a fabb 0f9b 85be
000000f0: b9d1 813e 0199 a3bb afcd 843c c73c 9a3c
00000100: a736 9dbd 0dd1 1ebd 79ac 98bd 7074 f0bc
00000110: 5792 323f 596a a0be 157d 1c3f 4497 72be
00000120: 571e 653e b7b0 213d 011e aa3d 3b6d 8dbe
00000130: 6f85 19bf c7e4 933e ee25 173e 16f7 3cbb
00000140: c130 343d 8a3d 95bd d1d2 213b 3382 1ebd
00000150: 6709 443c 9dfb c33d 512e 013e fa26 09be
00000160: 37a4 1abf 8d9d 823f c19b de3e 9efa 63bc
00000170: 9816 97be 8d5d 273e 4a23 f9bc 462e 91be
00000180: 41ed 50bd ded1 68bd ee91 9fbc 7f4f 933c
00000190: 2c44 eebd d5a7 cfbd b4a6 f13e 990c 2dbf
000001a0: e609 413e b76c 39be fdb4 c1bd 311b 45bd
000001b0: 37a9 3fbe 37e1 363e d023 dc3e c9b4 e63e
000001c0: bac7 64be 4578 6bbc a1ec c6bd d973 10be
000001d0: db37 f53d 4ba6 e73d ceb7 e6bd 3c11 7abe
000001e0: b25e 953e d570 073f fa52 ecbe 6c5d abbe
000001f0: e6e9 fdbd f496 573d 7526 f2bc dc8d afbd
00000200: 368d 283f 14c1 843e e8e7 b1bd 2da7 1f3e
00000210: 9547 8d3c 1d69 febc c29d 423d 1317 193d
00000220: c4a9 c5bc dc85 77bf b3ba 98bc 3b4f 25bf
00000230: 4803 a93d 9f6e cebe 87f7 c03d c7aa a8bd
00000240: 3dfb 66bd 52d5 703e fc33 d23e 4d4c 283d
00000250: 64f2 b03d c082 c3bc ab6f b33c 1434 9dbd
00000260: 5e0c 71bc 200f fb3a f23b f03e 13d2 c6be
00000270: 2a20 cabc 2cb4 0d3e 81cc 00bf bda0 5c3d
00000280: 7230 b83e a849 053f 44a2 1b3d fd0c be3d
00000290: 3d64 67bd afab 25bc f1cc d4bc 9161 593c
000002a0: e325 3abc 31dd c03c 5ca0 4d3d 41be 25bf
000002b0: 44b2 bbbc c30a 50be 641f 09be 53a2 0abf
000002c0: b14b dbbe 311b b3bc a888 7d3e c695 2abe
000002d0: 9e81 863e 2718 493d cdb3 10be 937a 0fbc
000002e0: d167 9d3d 1f81 da3d d45b 2f3e 358d 2b3f
000002f0: 0d44 cebe c82b 523f 303b 0dbf 3533 953e
00000300: 9e55 243f 8127 473e 1277 b6be 33b1 e8be
00000310: 2bca 1b3f 5e92 4ebd cac8 06bd 44cb 0cbe
00000320: b301 d9bc 5002 dabd ae28 c9bd 9edd debd
00000330: daeb a03c 8442 a3bf 6618 b63e cd2e 12bf
00000340: 89ee 093f 8727 e23e 5493 b4bd 7ac0 873e
00000350: dc97 f3be 2bac 503e e70d b63e 5da2 433d
00000360: 78be b33d 0ff8 c2bd 7820 533d ad09 3cbd
00000370: b49a ba3d a466 2e3f f1d5 32be 15ba 23be
00000380: 1391 1cbe ac8d eabc 4c5d 9f3c 4470 ba3d
00000390: 9143 c13c 4cee 0e3e f381 85be be53 bd3e
000003a0: 09b7 3b3e 5c13 2b3e 0da6 98bd 198b e23c
000003b0: 644d ea3c 14f2 babc 4dd6 c5bd e9c3 a3bf
000003c0: 830f 403f da40 0ebe d986 423f d195 6d3e
000003d0: ab3c 023f 0fe6 69be 2b1c 21bf 2a9a 293e
000003e0: 9829 d0bd 0735 41bd 8f6b ebbc 21b8 bdbc
000003f0: 91ca 60bd 6355 27bd 469f 143d d432 af3d

layer_1.bias f4 [400]
-0.5228108 -0.36811322 -0.41583207 -0.14994693 -0.4188025 -0.87361735 -0.29644388 0.014496046
-0.3616094 -0.6583556 -0.18819009 -0.34118435 -0.17369981 -0.44923374 -0.33839473 -0.7780951
0.42454258 -0.3248439 -0.53979266 0.33188966 -0.30566663 -0.106667005 -0.40823203 -0.7952663
0.14271805 -0.530608 -0.3102064 -0.59998655 -0.29255202 -0.3436852 -0.20006202 -0.44591346
-0.7431363 -0.11888645 -0.2239364 0.19472267 -0.34062248 -0.77840453 -0.44164863 -0.63087225
-0.21304138 -0.18802857 -0.41348976 -0.29079705 -0.6915337 -0.6068395 0.18933235 -0.31313568
-0.556072 0.26260546 -0.3700799 -0.66161966 -0.72507864 -0.5430552 0.077219225 -0.3517911
-0.33501384 -0.57066494 -0.45767197 0.15756474 -0.13319263 -0.34317842 -0.15631391 -0.59319335
-0.07153802 -0.1307115 -0.6279482 -0.48950672 -0.5833402 -0.5503587 -0.17425324 -0.7354076
0.07740603 -0.25285232 -0.3114966 -0.38008356 -0.22850887 -0.5607244 -0.027403256 -0.61285585
-0.22920994 -0.67447406 -0.5864063 -0.3994726 -0.6431008 -0.88384277 -0.2624881 -0.67678505
-0.41981456 -0.37247396 -0.7406367 -0.058114044 0.009777561 -0.5093087 -0.7812241 -0.2549217
-0.40748397 -0.7823771 -0.48073894 -0.064691305 -0.27038628 -0.52874666 -0.036509015 -0.14465292
-0.40714654 -0.5401456 -0.4102467 -0.4559424 -0.6727248 -0.30338943 -0.35289717 -0.2560083
-0.5203626 -0.11506602 -0.2503263 0.43018654 -0.28243417 -0.32879913 -0.6624215 -0.12900141
-0.4595058 -0.6729028 -0.42319208 -0.622701 -0.28560734 -0.48704433 -0.57143354 0.08926875
-0.13924673 -0.43439648 -0.5468798 0.036485326 -0.43798193 -0.63945794 -0.11656057 -0.20084041
-0.14238533 0.015514572 -0.27507928 -0.26010233 0.20357454 -0.37745425 0.024603061 -0.5536754
-0.64018667 -0.31266832 -0.80397385 -0.67583656 -0.6523852 -0.62616456 -0.38334438 -0.28411013
0.15814668 -0.8390972 -0.12353107 -0.07089126 -0.53208953 -0.51856506 -0.16790773 -0.16809624
-0.74746174 -0.46470484 -0.04982039 -0.40867898 -0.1470008 -0.1895972 -0.04449483 -0.6663261
-0.5399524 -0.7641402 -0.016010933 -0.6517232 -0.09812034 -0.34443018 -0.47436568 -0.5385591
-0.43406728 -0.5894047 -0.40193203 -0.85733944 -0.4846494 -0.50938755 -0.53741354 0.44204324
-0.62323475 -0.61902064 -0.59681374 -0.23591799 -0.42835686 0.06327898 -0.6808304 -0.66241765
0.41927844 -0.21509807 0.04889387 0.01292835 -0.35918832 -0.68407834 -0.29473704 0.23325853
-0.36836597 -0.17708294 -0.58634204 -0.8302596 -0.38578182 -0.47326776 -0.4551352 -0.1892802
0.0001732989 -0.079073764 -0.2852839 -0.64994 -0.7254999 -0.6358177 -0.64141333 0.29396972
0.025472386 -0.46637142 -0.016633017 -0.29694477 -0.13947934 -0.257251 -0.76505816 -0.5405114
0.032767154 -0.16292007 -0.67701584 -0.37346193 -0.5599938 -0.28106675 -0.5481189 -0.38529605
-0.058948472 -0.3420687 -0.18592402 -0.5692155 -0.33144096 -0.43978292 -0.21101578 -0.42013046
-0.19732729 -0.19900951 -0.4563339 -0.84012496 -0.37101012 -0.58035475 0.08446388 -0.35211673
0.032900404 -0.5150778 -0.40058872 -0.43737936 -0.77290314 -0.6178032 -0.4650856 -0.29876694
00000000: eed6 05bf 5679 bcbe f1e7 d4be b08b 19be
00000010: 486d d6be 63a5 5fbf 7ec7 97be d380 6d3c
00000020: de24 b9be fe89 28bf e7b4 40be b7af aebe
00000030: 5dde 31be f701 e6be 1342 adbe 3e31 47bf
00000040: a55d d93e f151 a6be da2f 0abf 71ed a93e
00000050: 5680 9cbe 3b74 dabd ca03 d1be 9296 4bbf
00000060: ae24 123e edd5 07bf 60d3 9ebe b898 19bf
00000070: 61c9 95be 82f7 afbe 0fdd 4cbe c54e e4be
00000080: 2e3e 3ebf bd7a f3bd 954f 65be 6165 473e
00000090: 1266 aebe 8545 47bf c51f e2be d880 21bf
000000a0: 8527 5abe 908a 40be eeb4 d3be 5ae3 94be
000000b0: 5a08 31bf d559 1bbf 57e0 413e 5253 a0be
000000c0: bc5a 0ebf 3974 863e 1d7b bdbe e85f 29bf
000000d0: c19e 39bf aa05 0bbf 1d25 9e3d f71d b4be
000000e0: ef86 abbe 1917 12bf fb53 eabe a758 213e
000000f0: a663 08be 15b5 afbe c110 20be 85db 17bf
00000100: 8782 92bd 3cd9 05be 37c1 20bf a0a0 fabe
00000110: c955 15bf 4fe4 0cbf 716f 32be ac43 3cbf
00000120: 0d87 9e3d dc75 81be 7b7c 9fbe 509a c2be
00000130: 3bfe 69be a28b 0fbf cb7c e0bc 1fe4 1cbf
00000140: 03b6 6abe 55aa 2cbf b91e 16bf ac87 ccbe
00000150: 41a2 24bf 8543 62bf d764 86be c941 2dbf
00000160: eff1 d6be e8b4 bebe 5e9a 3dbf fe08 6ebd
00000170: 1032 203c 0e62 02bf 4dfe 47bf 1985 82be
00000180: bda1 d0be de49 48bf 6a23 f6be e07c 84bd
00000190: 1270 8abe f15b 07bf 7a8a 15bd e51f 14be
000001a0: 8375 d0be fb46 0abf db0b d2be 4871 e9be
000001b0: b137 2cbf dc55 9bbe f0ae b4be 8513 83be
000001c0: 7c36 05bf bca7 ebbd c52a 80be 6941 dc3e
000001d0: 369b 90be 5c58 a8be 7594 29bf f218 04be
000001e0: 5844 ebbe 5c43 2cbf a2ac d8be 5569 1fbf
000001f0: 203b 92be e05d f9be 7849 12bf 89d2 b63d
00000200: b296 0ebe 3769 debe 5100 0cbf a371 153d
00000210: 2b3f e0be 84b3 23bf 4fb7 eebd 1ca9 4dbe
00000220: 76cd 11be d530 7e3c 31d7 8cbe 222c 85be
00000230: d875 503e af41 c1be 5c8c c93c acbd 0dbf
00000240: 46e3 23bf 1016 a0be 3bd1 4dbf a003 2dbf
00000250: b702 27bf 524c 20bf b745 c4be e276 91be
00000260: 34f1 213e 13cf 56bf dcfd fcbd 702f 91bd
00000270: 0537 08bf aec0 04bf 01f0 2bbe 6c21 2cbe
00000280: a759 3fbf cbed edbe 7710 4cbd 5f3e d1be
00000290: 6187 16be c525 42be 3640 36bd 5994 2abf
000002a0: 523a 0abf b19e 43bf 5c29 83bc 55d7 26bf
000002b0: 51f3 c8bd 2759 b0be 0fe0 f2be 02df 09bf
000002c0: 113e debe 3ae3 16bf 09ca cdbe 997a 5bbf
000002d0: f723 f8be 3967 02bf ef93 09bf 7e53 e23e
000002e0: 508c 1fbf 2378 1ebf c9c8 18bf 7c94 71be
000002f0: 9751 dbbe 6998 813d e74a 2ebf 3494 29bf
00000300: aaab d63e ab42 5cbe f044 483d 6ed1 533c
00000310: 88e7 b7be c21f 2fbf c6e7 96be 53db 6e3e
00000320: 779a bcbe 3b55 35be 831a 16bf e58b 54bf
00000330: 3285 c5be 2750 f2be 7b07 e9be abd2 41be
00000340: 92b7 3539 6df1 a1bd bb10 92be 7862 26bf
00000350: 5dba 39bf f3c4 22bf aa33 24bf 3383 963e
00000360: 77ab d03c 3cc8 eebe f741 88bc 2509 98be
00000370: acd3 0ebe 67b6 83be dada 43bf f55e 0abf
00000380: da36 063d 85d4 26be e950 2dbf 6736 bfbe
00000390: c15b 0fbf fbe7 8fbe 8551 0cbf 8645 c5be
000003a0: f473 71bd a123 afbe de62 3ebe 1bb8 11bf
000003b0: a1b2 a9be 3a2b e1be 8514 58be 571b d7be
000003c0: 2a10 4abe 26c9 4bbe 99a4 e9be 6e12 57bf
000003d0: 0af5 bdbe 2192 14bf 66fb ac3d a548 b4be
000003e0: 93c2 063d 24dc 03bf f719 cdbe 30f0 dfbe
000003f0: fbdc 45bf 5a28 1ebf b31f eebe fbf7 98be

layer_2.weight f4 [300, 400]
-0.12039008 -0.01467844 -0.07631043 0.03359849 -0.0059417696 -0.027553765 -0.046337437 0.014783184
0.02505127 0.026252601 0.03282569 -0.07002278 -0.0033338468 -0.038639642 -0.025713306 -0.01245452
-0.07117826 -0.05479201 -0.03710306 -0.043084435 -0.055992283 -0.10614548 0.030964106 -0.088639416
-0.021547351 -0.04698024 -0.046363357 -0.087735854 -0.10025819 0.014117351 -0.03811925 -0.06657012
-0.047999106 -0.057628144 -0.039971173 0.0039871424 -0.0031074306 -0.0054088035 -0.011420367 -0.12039299
-0.04337263 -0.011000014 -0.06509901 0.0037357036 0.035316776 -0.117869645 -0.029767856 -0.026738586
0.003592199 -0.03077045 -0.058075782 -0.02815082 -0.08684439 -0.030478802 -0.014817041 0.002803804
-0.030329423 0.007198732 0.0026257858 -0.045971487 -0.07163873 -0.037667636 0.04273328 0.017423822
-0.024845453 -0.0036785172 0.0046697846 -0.14145099 -0.079141036 -0.08430536 -0.097714186 0.03616585
0.025916722 -0.009405328 -0.07262039 0.032429785 0.0077080396 -0.08642815 -0.12747505 0.040069614
0.026283097 -0.037532628 -0.0341781 -0.068634406 0.037642986 -0.06337454 -0.014646305 0.0031219472
0.009360362 0.050794702 -0.021949803 -0.006531159 0.010445038 0.0074856095 -0.10137437 -0.00074184424
0.0119800875 -0.0696705 -0.04035557 -0.050858766 0.048617277 -0.01427878 -0.014976151 -0.064469576
-0.018237289 -0.00036473398 0.024612345 -0.0043729697 -0.033910457 -0.07728311 -0.10352221 -0.018486403
-0.036589693 -0.021446936 -0.025306838 -0.090110645 -0.0056746216 -0.013491046 -0.08651743 -0.014899143
-0.027050324 -0.0799875 -0.01957585 -0.038300633 0.02247793 -0.0090713985 0.0014967105 -0.03364433
-0.052106626 -0.049141783 -0.051175404 -0.018954482 0.026857575 -0.070875876 -0.07702788 0.01411365
-0.009906827 0.024865853 0.0031546596 -0.08327209 -0.030273093 -0.07009445 0.022210462 -0.0652023
-0.041039336 0.0040199673 -0.030223476 -0.07247068 -0.06739095 -0.05028029 0.018861264 -0.08346239
-0.032858644 -0.055235244 -0.04680805 -0.10403868 -0.07379036 -0.05147541 -0.012318404 -0.018489785
-0.06694101 -0.056557447 -0.11112174 0.02384285 -0.0019190058 0.07026393 0.015899325 -0.068949744
-0.047590476 -0.08429448 0.01869269 -0.016711622 -0.031858545 -0.008647408 -0.072549656 -0.009313886
0.003757052 -0.06465143 0.053328298 -0.028915193 -0.007487093 -0.08754586 -0.023996683 -0.04247729
-0.060033623 -0.077902004 -0.12129302 -0.09256785 -0.0034016364 0.024392234 0.03809512 -0.06916297
-0.08346594 -0.1032646 0.027144093 -0.02724082 -0.010591979 -0.072700605 0.018442655 -0.012358196
0.0009404964 -0.04424891 -0.0438727 -0.06845332 -0.10061485 -0.005603941 -0.08235554 -0.010153826
-0.04413791 -0.007098692 -0.063944116 -0.039456327 -0.015398766 -0.014931288 -0.13217817 0.011125218
-0.014910817 -0.016501186 -0.033113062 -0.036295358 -0.032199237 0.00129228 -0.09417026 -0.11117873
0.034019362 -0.059197776 -0.011443924 -0.015475014 -0.08282213 -0.07303347 -0.0028155965 -0.0031661922
-0.06459076 -0.017233282 -0.07332912 -0.041814487 -0.0012934284 -0.04307793 -0.039764006 0.0017133907
0.04101012 0.014572407 -0.06754376 -0.028731897 -0.07673076 -0.10052583 0.009728847 -0.016395727
-0.028456375 0.025439544 -0.008778828 -0.00029257117 -0.043729622 -0.092021495 0.021959921 -0.04009974
00000000: 138f f6bd d77d 70bc a548 9cbd 929e 093d
00000010: 2db3 c2bb 6fb8 e1bc 53cc 3dbd 2b35 723c
00000020: 5238 cd3c b20f d73c 3b74 063d 1a68 8fbd
00000030: ab7c 5abb 9a44 1ebd b6a4 d2bc 0b0e 4cbc
00000040: e8c5 91bd 966d 60bd 61f9 17bd 4e79 30bd
00000050: 2a58 65bd cd62 d9bd 70a8 fd3c 9588 b5bd
00000060: 1284 b0bc 5a6e 40bd 81e7 3dbd dbae b3bd
00000070: 2a54 cdbd 764c 673c ee22 1cbd ea55 88bd
00000080: b69a 44bd 7d0b 6cbd d0b8 23bd 93a6 823b
00000090: 09a6 4bbb 553c b1bb 7e1c 3bbc 9a90 f6bd
000000a0: 80a7 31bd 6739 34bc a152 85bd b5d2 743b
000000b0: 53a8 103d a465 f1bd b8db f3bc e10a dbbc
000000c0: 196b 6b3b 5012 fcbc dfe0 6dbd 8c9c e6bc
000000d0: 79db b1bd aeae f9bc 2dc3 72bc 06c0 373b
000000e0: 6975 f8bc 57e3 eb3b 6015 2c3b 994c 3cbd
000000f0: 54b7 92bd 6149 1abd 1809 2f3d 67bc 8e3c
00000100: b188 cbbc 4713 71bb fe04 993b 87d8 10be
00000110: b214 a2bd 4aa8 acbd 601e c8bd a422 143d
00000120: 4e4f d43c ce18 1abc 00ba 94bd 18d5 043d
00000130: b993 fc3b 3e01 b1bd d288 02be 0920 243d
00000140: a64f d73c d0bb 19bd 56fe 0bbd 3290 8cbd
00000150: 882f 1a3d 83ca 81bd 0ef7 6fbc 9599 4c3b
00000160: 345c 193c 1b0e 503d 13d0 b3bc 5503 d6bb
00000170: aa21 2b3c d849 f53b 5e9d cfbd 5378 42ba
00000180: 2148 443c 68af 8ebd e24b 25bd 4851 50bd
00000190: e922 473d 8bf1 69bc 885e 75bc a008 84bd
000001a0: 5e66 95bc c439 bfb9 d49f c93c 214b 8fbb
000001b0: b1e5 0abd 9b46 9ebd 7403 d4bd cc70 97bc
000001c0: 13df 15bd 7cb1 afbc 4950 cfbc ee8b b8bd
000001d0: 2df2 b9bb 8c09 5dbc 0d30 b1bd 891b 74bc
000001e0: a498 ddbc 7dd0 a3bd 885d a0bc 20e1 1cbd
000001f0: a323 b83c 34a0 14bc 452d c43a a3ce 09bd
00000200: c26d 55bd e548 49bd 4d9d 51bd 6e46 9bbc
00000210: 6b04 dc3c 5f27 91bd cbc0 9dbd f03c 673c
00000220: 3e50 22bc 79b3 cb3c 68be 4e3b 8f8a aabd
00000230: 47ff f7bc ae8d 8fbd b7f2 b53c c988 85bd
00000240: dd18 28bd eeb9 833b 3997 f7bc 826b 94bd
00000250: 4404 8abd b5f2 4dbd f082 9a3c 54ee aabd
00000260: c996 06bd 5a3e 62bd ccb9 3fbd 3b12 d5bd
00000270: 661f 97bd e1d7 52bd 22d3 49bc e477 97bc
00000280: 5e18 89bd c8a8 67bd cb93 e3bd 1552 c33c
00000290: 2687 fbba 89e6 8f3d 4d3f 823c 8635 8dbd
000002a0: 3bee 42bd 96a2 acbd 6a21 993c d0e6 88bc
000002b0: 1b7e 02bd dcad 0dbc ea94 94bd 4599 18bc
000002c0: df38 763b f867 84bd c66e 5a3d 8edf ecbc
000002d0: 4a56 f5bb 3e4b b3bd b194 c4bc abfc 2dbd
000002e0: d1e5 75bd 168b 9fbd 7a68 f8bd 3794 bdbd
000002f0: fded 5ebb 39d2 c73c a109 1c3d 51a5 8dbd
00000300: 31f0 aabd 647c d3bd 4a5d de3c 2428 dfbc
00000310: fb89 2dbc 0ee4 94bd 0d15 973c 087a 4abc
00000320: a58b 763a 583e 35bd dcb3 33bd 4131 8cbd
00000330: 290f cebd 44a1 b7bb 05aa a8bd 3c5c 26bc
00000340: f4c9 34bd 259c e8bb 22f5 82bd f59c 21bd
00000350: 1b4b 7cbc 5ca2 74bc b759 07be 8c46 363c
00000360: 804c 74bc 7f2d 87bc 90a1 07bd 71aa 14bd
00000370: 59e3 03bd b961 a93a 56dc c0bd adb1 e3bd
00000380: e357 0b3d 5e79 72bd 4c7f 3bbc ea8a 7dbc
00000390: a69e a9bd 9292 95bd df85 38bb e47f 4fbb
000003a0: 2948 84bd d02c 8dbc 942d 96bd ab45 2bbd
000003b0: 4188 a9ba 7c72 30bd 95df 22bd da93 e03a
000003c0: 3afa 273d 1bc1 6e3c 6254 8abd 285f ebbc
000003d0: 0425 9dbd 7de0 cdbd be65 1f3c 5550 86bc
000003e0: 581d e9bc 9766 d03c 13d5 0fbc 3d64 99b9
000003f0: d51d 33bd c475 bcbd 4be5 b33c a03f 24bd

layer_2.bias f4 [300]
-0.010252001 -0.05213808 -0.053442623 0.0043658633 -0.114444725 0.09028993 0.26213038 -0.20058379
-0.07382292 -0.036498636 0.3971729 0.19997895 0.23563579 -0.014216946 -0.09175771 -0.0834206
-0.07672891 0.10752759 -0.045503486 -0.02326959 -0.13034754 0.004689137 -0.024489854 -0.04495338
-0.02919004 -0.49807552 0.009167228 -0.06525732 0.12140623 -0.058467787 -0.035068758 -0.36841688
-0.074503474 -0.075395614 -0.06688779 -0.04755327 -0.029682316 -0.085214995 -0.05801266 -0.078662604
-0.07681153 -0.014711026 -0.061442837 -0.020856738 0.18203467 0.00065751513 -0.1878189 -0.07092417
0.1707957 -0.0031950576 -0.058444317 0.015760463 -0.28794792 -0.09702554 0.23392549 -0.043727167
-0.006056894 0.031011313 -0.082823776 -0.03210946 0.014279695 -0.06151862 -0.060334522 -0.07342808
0.012883017 -0.06848042 0.0028654898 -0.09030189 -0.01759668 -0.099651456 -0.014661904 0.037883613
0.35142666 -0.060685378 -0.06460605 0.5382444 0.36670417 -0.24672717 -0.20714052 -0.06625213
0.0043556956 0.1995159 -0.056424823 -0.031458657 -0.22736706 -0.3461442 -0.039606504 0.041090734
-0.092007816 -0.004453239 -0.0046877903 -0.020209756 -0.051768135 -0.026097732 -0.045915864 -0.089766085
0.20819199 -0.16236143 -0.08268311 -0.04266613 -0.16815248 -0.039056435 -0.062013384 -0.07033065
0.098984264 -0.047384564 -0.023585424 -0.023811404 -0.005882896 0.24148655 -0.06673735 0.12277478
-0.039177015 -0.075966336 -0.012332134 -0.10796626 -0.032642845 0.74849993 0.045418136 -0.07126259
-0.037328444 -0.0023747035 -0.0679303 -0.14970422 -0.03453143 -0.028423991 -0.07279651 -0.062492885
-0.06696933 -0.25277647 0.35009605 -0.14959505 -0.032937843 -0.020576911 -0.0050957548 0.0051110378
-0.064662814 0.26031142 -0.018648362 -0.0698397 -0.056762815 0.078910656 0.43864846 -0.035580557
-0.051446952 -0.08840916 -0.033668365 0.28131902 0.14866063 -0.25539568 -0.086775765 0.16759244
0.007927458 -0.05008676 -0.081217155 -0.013423782 0.3141969 0.22640689 -0.059728943 -0.11497596
-0.008778254 -0.07240311 -0.079699464 0.25501674 -0.05450088 -0.06693937 -0.044179786 -0.12062209
-0.03526032 -0.011104163 0.3330263 -0.076297425 0.002376039 0.04515745 0.06580593 -0.16241844
0.51065683 -0.0506293 -0.06719672 -0.10474694 0.48700875 0.44771847 0.19564456 -0.1316323
0.0016509619 0.09089908 -0.046064544 0.59815127 0.31295863 -0.038880985 -0.074971415 -0.0047554965
-0.019457566 -0.06369307 -0.007199069 -0.025127832 -0.052106507 -0.061670028 0.22805199 -0.028166402
-0.033031147 -0.008226322 0.086053506 -0.0362689 -0.052670654 -0.017429953 0.35143203 -0.08755331
-0.044965334 -0.0864487 -0.0146890385 -0.03318613 -0.038807455 0.0049887164 -0.12654349 -0.2311914
-0.011627831 -0.07314472 -0.06834254 -0.061092813 -0.053278133 -0.08736292 -0.09581817 -0.014519203
-0.026256377 -0.0348554 0.10086438 0.009466605 -0.051049825 -0.0272929 -0.088094525 -0.0510193
0.033419225 0.8926858 -0.06782148 -0.08634098 -0.017131496 0.04473702 0.030998245 -0.078955635
-0.012795104 0.36779597 0.27868134 -0.15086941 -0.077424824 -0.05538642 -0.09274559 -0.05941436
0.22824986 -0.010861028 -0.07291935 -0.020833023 -0.02386353 -0.12692371 -0.022607848 0.04565828
00000000: 02f8 27bc bd8e 55bd a7e6 5abd 840f 8f3b
00000010: ff61 eabd ede9 b83d f435 863e d665 4dbe
00000020: 7930 97bd 987f 15bd 3f5a cb3e 48c7 4c3e
00000030: 824a 713e 32ee 68bc 77eb bbbd 6bd8 aabd
00000040: 0c24 9dbd 6d37 dc3d dd61 3abd de9f bebc
00000050: d379 05be 55a7 993b f29e c8bc 0921 38bd
00000060: f31f efbc c103 ffbe 2432 163c a1a5 85bd
00000070: d4a3 f83d eb7b 6fbd 42a4 0fbd 23a1 bcbe
00000080: 4795 98bd 0469 9abd 77fc 88bd 38c7 42bd
00000090: 5428 f3bc 3385 aebd af9e 6dbd dc19 a1bd
000000a0: 5d4f 9dbd 8406 71bc 7cab 7bbd c0db aabc
000000b0: 4c67 3a3e 185d 2c3a 9953 40be b140 91bd
000000c0: 11e5 2e3e 2c64 51bb 4f63 6fbd 161c 813c
000000d0: e96d 93be 54b5 c6bd 2a8a 6f3e 421b 33bd
000000e0: e978 c6bb 700b fe3c 839f a9bd 3685 03bd
000000f0: 62f5 693c f3fa 7bbd 5521 77bd 7661 96bd
00000100: 4a13 533c 763f 8cbd f1ca 3b3b 33f0 b8bd
00000110: ea26 90bc 1016 ccbd 7c38 70bc d92b 1b3d
00000120: 32ee b33e 3b91 78bd 2d50 84bd 63ca 093f
00000130: a6c0 bb3e 0ca6 7cbe a51c 54be 32af 87bd
00000140: 39ba 8e3b e54d 4c3e b71d 67bd cbda 00bd
00000150: e9d2 68be d039 b1be 6e3a 22bd c24e 283d
00000160: 986e bcbd 7aec 91bb 099c 99bb ee8e a5bc
00000170: d30a 54bd e9ca d5bc 4612 3cbd 48d7 b7bd
00000180: 4830 553e 1342 26be c355 a9bd aec2 2ebd
00000190: 2a30 2cbe a4f9 1fbd bf01 7ebd 8409 90bd
000001a0: 43b8 ca3d 5116 42bd 3836 c1bc 2210 c3bc
000001b0: 4fc5 c0bb 4048 773e 97ad 88bd 5871 fb3d
000001c0: 1478 20bd 3d94 9bbd b80c 4abc 6a1d ddbd
000001d0: 81b4 05bd b19d 3f3f 5e08 3a3d 1ff2 91bd
000001e0: b6e5 18bd eaa0 1bbb 0b1f 8bbd 104c 19be
000001f0: d470 0dbd 6ed9 e8bc 5616 95bd 8af8 7fbd
00000200: 3727 89bd eb6b 81be ca3f b33e 722f 19be
00000210: d5e9 06bd e990 a8bc 4afa a6bb 7e7a a73b
00000220: f06d 84bd 8a47 853e 73c4 98bc 1e08 8fbd
00000230: 2080 68bd e99b a13d 8896 e03e ebbc 11bd
00000240: 0aba 52bd dd0f b5bd d7e7 09bd 0c09 903e
00000250: 7e3a 183e 39c3 82be 7eb7 b1bd 5a9d 2b3e
00000260: 2be2 013c c627 4dbd 2e55 a6bd 6cef 5bbc
00000270: 6bde a03e 35d7 673e 56a6 74bd 8478 ebbd
00000280: aad2 0fbc 1548 94bd 7939 a3bd 8e91 823e
00000290: 513c 5fbd 8217 89bd ddf5 34bd b708 f7bd
000002a0: 206d 10bd 3cee 35bc 6c82 aa3e d341 9cbd
000002b0: 52b7 1b3b 05f7 383d 42c5 863d 0551 26be
000002c0: 68ba 023f ab60 4fbd 6f9e 89bd 9085 d6bd
000002d0: 3659 f93e 5b3b e53e 0c57 483e 9eca 06be
000002e0: 1765 d83a 4c29 ba3d 2dae 3cbd 7120 193f
000002f0: 1d3c a03e ab41 1fbd 9d8a 99bd ffd3 9bbb
00000300: 7965 9fbc 8371 82bd 2be6 ebbb e2d8 cdbc
00000310: a26d 55bd b699 7cbd 7686 693e 3abd e6bc
00000320: ab4b 07bd b2c7 06bc d23c b03d b38e 14bd
00000330: 2fbd 57bd 43c9 8ebc e6ee b33e 264f b3bd
00000340: 922d 38bd 040c b1bd 4baa 70bc 2eee 07bd
00000350: 91f4 1ebd 6378 a33b 9e94 01be 70bd 6cbe
00000360: a882 3ebc e6cc 95bd 2cf7 8bbd 753c 7abd
00000370: 2c3a 5abd 55eb b2bd 513c c4bd f4e1 6dbc
00000380: 9d17 d7bc 89c4 0ebd fc91 ce3d d219 1b3c
00000390: 9f19 51bd 5c95 dfbc e76a b4bd 9df9 50bd
000003a0: 99e2 083d 0e87 643f fde5 8abd 8ad3 b0bd
000003b0: 5a57 8cbc 2a3e 373d 08f0 fd3c 7eb3 a1bd
000003c0: 8ea2 51bc c14f bc3e 52af 8e3e 837d 1abe
000003d0: e890 9ebd dfdc 62bd 66f1 bdbd 795c 73bd
000003e0: 55ba 693e 74f2 31bc bd56 95bd 04aa aabc
000003f0: 737d c3bc 4af8 01be 1834 b9bc 2d04 3b3d

layer_3.weight f4 [6, 300]
0.07629569 0.0047237747 0.011024874 0.007439704 -0.22556926 0.03655793 0.28944847 0.14707476
0.035318203 -0.026942058 0.14728115 -0.10130099 -0.101978704 -0.0006493994 0.08047585 0.015378833
0.006096501 -0.31797662 0.04675426 0.009119873 0.06986823 -0.04105142 0.0109640565 0.01017612
-0.00081855897 -0.54905456 0.038760193 0.026116608 0.06337283 0.053626318 -0.01645405 0.56008846
-0.014874829 0.16125664 0.017872907 0.023792397 0.0075106355 0.019103087 -0.031482153 -0.029483108
0.004453668 0.060016688 0.042204548 0.03499708 -0.13524449 -0.030951891 -0.029443089 0.12409064
0.13885958 0.020360203 0.05882572 0.040465917 -0.47810033 0.0058619883 0.010682313 0.022843296
0.059197314 0.20631665 -0.23499309 -0.0047511663 0.03907374 0.012886695 0.016286872 0.03373163
0.047593188 0.020454744 0.018687904 -0.02228706 0.039274063 -0.030216264 -0.037555315 -0.06018278
-0.2863804 -0.029089626 -7.481537e-05 0.95801085 0.48717967 -0.0051483526 -0.036553644 -0.042312257
-0.03693817 0.067274645 -0.023061477 0.049441356 -0.009025205 -0.39429858 -0.01151155 -0.21389295
0.031201826 0.00050604664 0.005791592 -0.02336824 -0.020633439 0.14936055 0.05176887 -0.028005535
-0.12440013 -0.008944676 -0.0041973824 0.0450368 -0.041437913 0.02571705 -0.016258977 -0.0035308131
-0.03424994 0.02601692 0.05442004 0.053334553 -0.16990326 -0.2556092 -0.034867276 0.012003905
-0.0334166 0.0966963 -0.18637255 0.75667804 0.08898787 0.68048364 0.18331201 -0.0051247524
0.07600507 0.014261476 0.027116897 0.006273023 -0.0062619536 0.08374195 0.04290668 0.023099165
-0.03202029 -0.062647186 -0.094071195 0.095568605 0.0030316452 -0.02200346 0.00041101163 -0.0741908
-0.0051894155 0.35147992 0.028916048 -0.011098608 0.07402439 -0.22402981 -0.027341375 -0.042728204
0.050737265 -0.0038693526 0.037728425 -0.11395406 0.08213314 -0.15157335 -0.021066276 0.16743615
0.010221099 -0.0059104427 -0.12660393 -0.023497684 -0.23961397 0.6919429 0.056610845 -0.020035725
-0.011640678 -0.020312013 0.062480982 0.53189814 0.06880509 -0.0014442933 0.016627729 -0.09241427
0.051843125 0.05536541 0.50404716 -0.0064765806 0.22774714 0.052424014 -0.023340175 -0.017987933
0.15168625 0.059930786 0.002559812 -0.0039769034 0.32081342 -0.12917362 0.21284382 0.21431804
0.025868487 0.117248535 -0.043706745 0.34811217 0.1673319 0.06064059 0.066687696 0.02041683
0.03370091 -0.025635974 0.011492405 0.016613211 -0.012548153 -0.037490293 0.17277639 -0.009581683
-0.03815156 0.009618986 0.044938125 -0.0068105124 0.032548375 0.07594586 -0.016738208 0.021944609
-0.013686666 0.05407396 0.058040123 0.03419803 0.035333436 0.042009525 0.03462996 0.22682518
0.051055677 -0.12766102 0.0139601715 0.021661617 0.06232162 0.0028726761 0.025941014 0.22264251
0.10100836 0.03489142 0.098449215 -0.05527955 0.056857824 0.004285717 0.06244452 -0.010038669
0.03957515 0.13807708 0.044653527 -0.223325 -0.0049429475 -0.020931238 0.03350011 0.032683626
-0.0059062243 -0.18344043 -0.25576308 0.05456638 -0.045752212 -0.043513622 0.06676891 0.0018396243
0.11195824 0.037012894 -0.29661238 0.07445873 0.0235376 0.15220626 0.014193283 -0.009270716
00000000: ea40 9c3d e5c9 9a3b aca1 343c c3c8 f33b
00000010: a1fb 66be c5bd 153d 9732 943e c49a 163e
00000020: d2a9 103d 97b5 dcbc dfd0 163e e576 cfbd
00000030: 36da d0bd 753c 2aba 86d0 a43d 80f7 7b3c
00000040: 28c5 c73b d5cd a2be 6581 3f3d 856b 153c
00000050: 1317 8f3d 8925 28bd 96a2 333c beb9 263c
00000060: 9094 56ba d78e 0cbf 02c3 1e3d 7ff2 d53c
00000070: 9dc9 813d 45a7 5b3d a5ca 86bc f561 0f3f
00000080: 8eb5 73bc 7620 253e 346a 923c 46e8 c23c
00000090: c71b f63b 147e 9c3c 6ef3 00bd 8f86 f1bc
000000a0: 13f0 913b 0fd4 753d adde 2c3d 1959 0f3d
000000b0: 887d 0abe d28e fdbc a232 f1bc 3c23 fe3d
000000c0: 3531 0e3e 71ca a63c 3df3 703d 97bf 253d
000000d0: 91c9 f4be ec15 c03b de04 2f3c dd21 bb3c
000000e0: e278 723d ac44 533e 07a2 70be acaf 9bbb
000000f0: c90b 203d b722 533c 0c6c 853c 2d2a 0a3d
00000100: 13f1 423d b590 a73c 6017 993c 5a93 b6bc
00000110: d7dd 203d 1988 f7bc 9ad3 19bd 3882 76bd
00000120: 74a0 92be 5e4d eebc 32e6 9cb8 3340 753f
00000130: 9d6f f93e 83b3 a8bb 46b9 15bd 9e4f 2dbd
00000140: 7b4c 17bd 4ac7 893d 6ceb bcbc 0583 4a3d
00000150: 74de 13bc 81e1 c9be f19a 3cbc c106 5bbe
00000160: f99a ff3c 37a8 043a 65c7 bd3b c06e bfbc
00000170: 7507 a9bc f9f1 183e 980b 543d dd6b e5bc
00000180: 7fc5 febd b18c 12bc 328a 89bb 8278 383d
00000190: cdba 29bd 90ac d23c 8c31 85bc 3765 67bb
000001a0: aa49 0cbd 7021 d53c 8ce7 5e3d 5575 5a3d
000001b0: 1ffb 2dbe 36df 82be fdd0 0ebd 07ac 443c
000001c0: d8df 08bd b608 c63d 72d8 3ebe a7b5 413f
000001d0: 463f b63d 2d34 2e3f 25b6 3b3e 8aed a7bb
000001e0: 8ca8 9b3d f7a8 693c 4124 de3c ee8d cd3b
000001f0: 1331 cdbb e680 ab3d eabe 2f3d 763a bd3c
00000200: b527 03bd 2b4d 80bd 66a8 c0bd 79b9 c33d
00000210: 91ae 463b 9a40 b4bc 0c7d d739 59f1 97bd
00000220: f90b aabb 2df5 b33e 59e1 ec3c f0d6 35bc
00000230: 199a 973d 1268 65be 05fb dfbc c503 2fbd
00000240: e1d1 4f3d f794 7dbb 1f89 1a3d bf60 e9bd
00000250: 6b35 a83d 0b36 1bbe 2f93 acbc 6274 2b3e
00000260: 6576 273c 63ac c1bb 76a4 01be 377e c0bc
00000270: 5d5d 75be 2b23 313f c6e0 673d f621 a4bc
00000280: 8bb8 3ebc 6165 a6bc 0fec 7f3d 7a2a 083f
00000290: afe9 8c3d 714e bdba e036 883c b143 bdbd
000002a0: 7559 543d d7c6 623d 3c09 013f 7f39 d4bb
000002b0: 8c36 693e 90ba 563d e533 bfbc 6e5b 93bc
000002c0: a453 1b3e fc79 753d 85c2 273b af50 82bb
000002d0: a841 a43e 1746 04be bbf3 593e 3076 5b3e
000002e0: 26ea d33c 0020 f03d d805 33bd c23b b23e
000002f0: 0e59 2b3e 4462 783d 8f93 883d 3241 a73c
00000300: f709 0a3d 8902 d2bc a44a 3c3c 6e18 883c
00000310: c596 4dbc 6c8f 19bd 4bec 303e 7efc 1cbc
00000320: cf44 1cbd f498 1d3c 0a11 383d b82a dfbb
00000330: 7251 053d 8189 9b3d 911e 89bc 2ec5 b33c
00000340: 0a3e 60bc a87c 5d3d 7bbb 6d3d 3c13 0c3d
00000350: cbb9 103d 2e12 2c3d 25d8 0d3d dc44 683e
00000360: c21f 513d 92b9 02be 34b9 643c b473 b13c
00000370: f444 7f3d 8243 3c3b 4082 d43c 66fc 633e
00000380: 79dd ce3d 4eea 0e3d be9f c93d cf6c 62bd
00000390: c0e3 683d 336f 8c3b d3c5 7f3d 3b79 24bc
000003a0: 8d19 223d 1464 0d3e 9ee6 363d 4faf 64be
000003b0: 73f8 a1bb fd77 abbc 6937 093d 44df 053d
000003c0: 0089 c1bb cfd7 3bbe 61f3 82be ff80 5f3d
000003d0: ac66 3bbd 573b 32bd 23be 883d 8c1f f13a
000003e0: 5d4a e53d d59a 173d 94dd 97be d27d 983d
000003f0: edd1 c03c f5db 1b3e f28a 683c 34e4 17bc

layer_3.bias f4 [6]
-0.02802341 0.2446183 0.21769227 -0.38823524 0.042799257 -0.0751488
00000000: 5a91 e5bc 387d 7a3e b9ea 5e3e c5c6 c6be
00000010: 464e 2f3d 9de7 99bd
