mujoco_env/vector/032/pytorch_models/TD3_HalfCheetah-v3_42-21_actor.pth (torch, 519525 bytes, 6 tensors)

layer_1.weight f4 [400, 17]
0	0x3c4c405e	0.012466518
1	0x3ef1f010	0.47253466
2	0xbe46fa8d	-0.19431515
3	0x3ea14f49	0.31505802
4	0xbe80cb75	-0.25155225
5	0xbead3e17	-0.33836433
6	0xbe2ccaa4	-0.16874176
7	0x3c4ebb0f	0.01261784
8	0x3ef7db27	0.48409387
9	0xbe9b7f29	-0.30370453
10	0x3e815239	0.25258043
11	0x3d26b364	0.040698424
12	0x3baf38a3	0.005347328
13	0x3c6ea4ba	0.014565641
14	0x3cf7fc23	0.030271595
15	0x3d755e99	0.05990467
16	0x3d78a86a	0.060707487
17	0x3f3da074	0.7407296
18	0xbf124e54	-0.5715077
19	0xbda9c766	-0.08289985
20	0xbea62763	-0.32451925
21	0xbe2904fb	-0.16505806
22	0x3dd8da13	0.10588469
23	0xbdf91674	-0.12162486
24	0xbe906225	-0.28199878
25	0xbc8b5842	-0.017009858
26	0x3df47dcd	0.11938057
27	0x3c28bce6	0.010298943
28	0x3d3bfa4f	0.04589301
29	0x3d028075	0.031860787
30	0xbd631a8e	-0.055445246
31	0x3c194136	0.009353926
32	0xbcff817c	-0.031189673
33	0x3d545110	0.05183512
34	0x3e5d5f3d	0.21618362
35	0xbcc5bafb	-0.02413701
36	0x3e07e6d5	0.13271649
37	0x3e43d069	0.19122471
38	0x3d95f4c9	0.0732208
39	0xbe004167	-0.12524949
40	0x3de42d32	0.11141433
41	0x3e08b61d	0.1335072
42	0x3ed9856f	0.42484614
43	0x3e381418	0.17976415
44	0x3e0f3d30	0.13988185
45	0x3d211d4c	0.03933458
46	0x3d5ecbb9	0.054393504
47	0x3bb6cc6a	0.0055785673
48	0x3dbef639	0.09324307
49	0x3cb1dca7	0.02171166
50	0xbdbbf1b0	-0.091769576
51	0xbe35968e	-0.17733213
52	0xbe678f96	-0.22613367
53	0x3f08e158	0.5346885
54	0x3db3d4dd	0.08780835
55	0x3f90532f	1.1275386
56	0x3f0bf744	0.5467417
57	0x3f197edb	0.5995919
58	0x3db8a723	0.09016254
59	0xbe91cc12	-0.28476006
60	0x3e88636f	0.26638362
61	0x3d6bedab	0.057599705
62	0xbcabc81c	-0.020969443
63	0x3d14da20	0.036340833
64	0xbe078539	-0.13234414
65	0xbda3a533	-0.079904936
66	0x3d0066da	0.031348087
67	0xbc5a9bfb	-0.013342853
68	0x3ec4ff75	0.38476148
69	0xbe2e7d89	-0.17040075
70	0x3ee2991a	0.44257432
71	0xbde1e669	-0.110302754
72	0x3eb75e70	0.35814238
73	0x3e973d14	0.29538786
74	0x3c8c8ff4	0.017158486
75	0xbe8d00b5	-0.27539602
76	0xbf2a6c86	-0.66571844
77	0x3e81fe3a	0.25389272
78	0x3e0c8edf	0.13726376
79	0xbd62189a	-0.055199243
80	0x3d666353	0.056247067
81	0xbe3b7d94	-0.18309623
82	0xbc5b194b	-0.0133727295
83	0xbdf06cbb	-0.11739489
84	0xbd0f8913	-0.035042834
85	0xbe8ba5d7	-0.27274963
86	0x3ef9f399	0.48818663
87	0xbed17754	-0.40911353
88	0xbf3813f4	-0.71905446
89	0x3fa36290	1.2764454
90	0x3f38823d	0.7207373
91	0x3e2a9fd7	0.16662537
92	0xbcc86ae9	-0.024465041
93	0x3dd15c51	0.10222686
94	0xbc9b9fb6	-0.018997055
95	0xbe1c0074	-0.15234548
96	0x3d5bd968	0.05367413
97	0xbdab125c	-0.08353111
98	0xbba15127	-0.004923004
99	0x3b9efb7e	0.0048517575
100	0xbe3f5404	-0.18684393
101	0xbd29feb1	-0.04150266
102	0x3eab0bc5	0.33407417
103	0xbf42346e	-0.7586125
104	0xbd3db200	-0.046312332
105	0x3c97af41	0.018516185
106	0x3d76271c	0.06009589
107	0xbe1bb187	-0.1520444
108	0xbe4f2285	-0.20228012
109	0x3e835e87	0.25658056
110	0x3e7b4fed	0.24542208
111	0x3ec66815	0.38751283
112	0xbca2df4b	-0.019881865
113	0xbdc0872a	-0.094007805
114	0xbe044599	-0.12917174
115	0xbdfd16cd	-0.123578645
116	0xbd389524	-0.045064107
117	0x3d26beef	0.040709432
118	0xbd9454ab	-0.07242712
119	0xbe749a0a	-0.23886886
120	0x3d8abdb9	0.06774468
121	0x3f4158e8	0.75526285
122	0xbe7b17dd	-0.24520822
123	0xbea8e267	-0.3298523
124	0xbe0267eb	-0.12734954
125	0xbddc6502	-0.10761453
126	0xbe936651	-0.28789
127	0xbd2f5996	-0.042810045
128	0x3ed93461	0.42422774
129	0x3e22e2e8	0.1590687
130	0xbe0c5a48	-0.13706315
131	0x3d803458	0.06259984
132	0xbbfbc213	-0.0076830476
133	0x3dea4269	0.11438448
134	0xbe265dc1	-0.16246702
135	0x3d96cbe5	0.073631085
136	0x3d99bd9e	0.0750687
137	0xbf22cc83	-0.6359331
138	0x3b083698	0.0020784494
139	0xbee960c0	-0.45581627
140	0xbd73390f	-0.059380587
141	0xbebd184c	-0.369326
142	0x3e4f5c1b	0.20249979
143	0xbe0a2b95	-0.13493188
144	0x3e22820e	0.15869924
145	0x3d290efb	0.041274052
146	0x3ec49656	0.38395947
147	0x3db938e0	0.09044051
148	0x3be5c66a	0.007012178
149	0x3df93097	0.12167471
150	0x3daa173e	0.08305214
151	0xbcee76c0	-0.029109359
152	0x3b89371c	0.0041874778
153	0xbe7fb47e	-0.24971196
154	0x3ef00792	0.46880776
155	0xbec8b6ec	-0.39202058
156	0x3e141b6b	0.14463584
157	0x3e4cc686	0.19997606
158	0xbe793a2c	-0.24338597
159	0x3e08ce9e	0.13360068
160	0x3ec58276	0.38576096
161	0x3ece929d	0.40346232
162	0x3ddd3db0	0.108027816
163	0x3dac99d6	0.084277794
164	0x3d8659f8	0.06560129
165	0xbcef2539	-0.029192554
166	0xbd37ef72	-0.044906087
167	0x3d26d13c	0.040726885
168	0x3d191a40	0.03737855
169	0x3d9c9bd9	0.07646913
170	0x3e3ef74a	0.18649021
171	0xbed8f0b6	-0.42371148
172	0xbe37e6a3	-0.17959075
173	0xbe8151b5	-0.2525765
174	0xbdb7e97e	-0.08980082
175	0xbee80d84	-0.45322812
176	0xbee38583	-0.444378
177	0xbd4a8a90	-0.04944855
178	0x3ec8d97a	0.3922842
179	0xbe08b40e	-0.13349935
180	0x3e5363d9	0.20643558
181	0x3d56d378	0.052447766
182	0xbd224073	-0.039612245
183	0x3b52809b	0.0032120112
184	0x3e3227da	0.17398015
185	0x3dca90aa	0.09890874
186	0xbd4967e1	-0.049171332
187	0x3f306e08	0.68917894
188	0xbefdf0d5	-0.49597803
189	0x3ec990b7	0.3936822
190	0xbe8d055a	-0.27543145
191	0x3e19ff79	0.15038861
192	0x3f0cbb00	0.5497284
193	0x3e5ce3ad	0.21571226
194	0xbe0a6d46	-0.13518247
195	0xbefa3cdd	-0.4887456
196	0x3f087e36	0.5331758
197	0x3d059890	0.032616198
198	0xbdc230d1	-0.09481967
199	0xbd81898b	-0.06325062
200	0x3d2676b0	0.040640533
201	0xbe29d589	-0.16585363
202	0x3ce602ea	0.028077561
203	0xbda7c640	-0.0819211
204	0x3e59e885	0.21280105
205	0xbf8001b9	-1.0000526
206	0x3dd085d6	0.10181777
207	0xbec1b280	-0.37831497
208	0x3eb62e09	0.35581997
209	0x3e98a078	0.29809928
210	0x3da08d43	0.078394435
211	0x3e7ec585	0.24880035
212	0xbebf2e31	-0.3733993
213	0x3db43f54	0.088011414
214	0x3e28f559	0.16499843
215	0x3dad4c79	0.084618516
216	0x3cc56a2c	0.024098478
217	0xbdc1e1d7	-0.09466904
218	0xbc38b0dd	-0.011272636
219	0x3cfb1387	0.03064896
220	0x3c817cc8	0.01580657
221	0x3f17b7ce	0.5926484
222	0xbe5362a8	-0.20643103
223	0xbe645033	-0.22296219
224	0xbde6cf6d	-0.11270032
225	0x3e0831a8	0.13300192
226	0x3df129cd	0.11775551
227	0xbc0814cf	-0.008305742
228	0x3daee232	0.08539237
229	0xbcc63d4a	-0.024199147
230	0xbdf1c38b	-0.11804875
231	0x3ec90e3b	0.3926867
232	0x3e2a8ab6	0.16654477
233	0x3d9ed712	0.07755865
234	0xbd1b0627	-0.037847664
235	0x3d934dbb	0.0719256
236	0xbb10ebea	-0.0022113272
237	0x3c62e3fb	0.0138483
238	0xbccee753	-0.025256788
239	0xbfa0492b	-1.2522329
240	0x3edb2b7a	0.42806607
241	0x3e4b5229	0.1985556
242	0x3f3e8898	0.74427176
243	0x3e5b119a	0.21393433
244	0x3eddc135	0.43311468
245	0xbebe4012	-0.37158257
246	0xbf0ba7e5	-0.5455306
247	0x3d27a429	0.04092804
248	0xbe130b48	-0.14359772
249	0xbcee8e50	-0.029120594
250	0x3a9d6462	0.0012008066
251	0x3d302a26	0.043008946
252	0xbd9d5b23	-0.076833986
253	0xbcab3db1	-0.02090344
254	0xbda9abd0	-0.08284724
255	0x3d3dc491	0.04633004

layer_1.bias f4 [400]
0	0xbec47244	-0.38368428
1	0xbedbed14	-0.42954314
2	0xbec3ffce	-0.382811
3	0x3e4210e1	0.18951751
4	0xbe0e359f	-0.13887642
5	0xbf05b66e	-0.5223149
6	0xbea2e27f	-0.31813428
7	0x3e2fef41	0.17181112
8	0xbe9de26e	-0.30836815
9	0xbeed797a	-0.46381742
10	0xbe64b0b9	-0.2233304
11	0xbed4f40c	-0.41592443
12	0xbe71d9e2	-0.23618272
13	0xbea66c79	-0.32504633
14	0xbe85a481	-0.2610207
15	0xbf0c0dc2	-0.5470849
16	0x3ead3da5	0.33836094
17	0xbe34d33f	-0.17658709
18	0xbf0222f9	-0.50834614
19	0x3ebe3af4	0.37154353
20	0xbe55b806	-0.2087098
21	0xbdbdb38c	-0.092627615
22	0xbf0aac45	-0.5416911
23	0xbf0823c8	-0.531796
24	0x3e3ff09f	0.18744133
25	0xbf0404ce	-0.5156983
26	0xbec8e90a	-0.39240295
27	0xbec99736	-0.39373177
28	0xbe3031d6	-0.17206511
29	0xbe814938	-0.25251174
30	0xbe01514f	-0.12628673
31	0xbeb1be7e	-0.34715647
32	0xbf167041	-0.58765036
33	0xbe639e29	-0.22228302
34	0xbebd27ef	-0.3694453
35	0x3e600462	0.21876672
36	0xbec6f46f	-0.38858363
37	0xbf143d6f	-0.5790624
38	0xbe95e444	-0.29275715
39	0xbeab1772	-0.33416325
40	0xbe95891b	-0.29206166
41	0xbdc26f3c	-0.094938725
42	0xbea5cc35	-0.3238236
43	0xbef4c0fd	-0.47803488
44	0xbf16cfbc	-0.5891073
45	0xbe8ffe42	-0.2812367
46	0x3e889ee5	0.26683727
47	0xbeae1110	-0.33997393
48	0xbe893dca	-0.26804954
49	0x3edc6a2e	0.4304976
50	0xbedb30c8	-0.42810655
51	0xbee864e6	-0.4538948
52	0xbf110674	-0.5665047
53	0xbef18139	-0.47168902
54	0xbd891258	-0.06692952
55	0xbec48b8e	-0.38387722
56	0xbd2fcff6	-0.042922936
57	0xbea8b555	-0.32950845
58	0xbee45098	-0.44592738
59	0x3e9e0770	0.3086505
60	0xbdd8b381	-0.10581113
61	0xbec0b39f	-0.3763704
62	0xbdc64911	-0.09681905
63	0xbefea644	-0.49736226
64	0xbdea94bd	-0.11454151
65	0xbde1520f	-0.110019796
66	0xbee074c3	-0.43839082
67	0xbee49cdc	-0.44650924
68	0xbd52ec2f	-0.051494773
69	0xbf08f322	-0.5349599
70	0xbeafcc5d	-0.34335604
71	0xbf0c32db	-0.547651
72	0x3eb09b5f	0.3449354
73	0xbe8ee8d2	-0.27912003
74	0xbe9b636a	-0.30349284
75	0xbed71e7c	-0.42015445
76	0xbe2ea092	-0.1705344
77	0xbef8c8a1	-0.48590568
78	0x3e3f7ec4	0.18700701
79	0xbf2a4dec	-0.6652515
80	0xbe586869	-0.2113358
81	0xbf0aaa34	-0.5416596
82	0xbedd4e17	-0.4322364
83	0xbf043e16	-0.51657236
84	0xbea73be3	-0.32662877
85	0xbf42f865	-0.7616027
86	0xbe8aa1a4	-0.27076447
87	0xbf104993	-0.56362265
88	0xbed2d912	-0.41181237
89	0xbf031095	-0.5119718
90	0xbeec4419	-0.46145704
91	0xbe22f47d	-0.15913577
92	0x3de82290	0.11334717
93	0xbf074208	-0.5283513
94	0xbf000ce6	-0.5001968
95	0xbe9204dc	-0.28519332
96	0xbe6e08c4	-0.23245531
97	0xbf15aad1	-0.5846377
98	0xbeb71e8b	-0.3576549
99	0x3db1011b	0.08642789
100	0x3d7def83	0.061995994
101	0xbef442cc	-0.47707212
102	0x3e4de182	0.20105556
103	0xbe4acede	-0.19805476
104	0xbe6dc814	-0.23220855
105	0xbf0ceee0	-0.55051994
106	0xbead4446	-0.3384115
107	0xbf0617c5	-0.5238002
108	0xbee66f04	-0.45006573
109	0xbe28858e	-0.16457197
110	0xbe4a5c84	-0.19761854
111	0xbdc30d79	-0.09524054
112	0xbec87e6f	-0.3915896
113	0xbe88004c	-0.26562726
114	0x3d257692	0.04039628
115	0x3e9d1c92	0.3068586
116	0xbea75c46	-0.32687587
117	0xbdeff06a	-0.11715777
118	0xbf13327d	-0.57498914
119	0xbd94a352	-0.072577134
120	0xbeaafb83	-0.33395013
121	0xbf159cda	-0.5844246
122	0xbe915f9a	-0.2839325
123	0xbea39848	-0.3195212
124	0xbe780fd6	-0.24224791
125	0xbef56fd2	-0.47936875
126	0xbebad131	-0.36487725
127	0x3eaff729	0.34368256
128	0xbde07320	-0.10959458
129	0xbeee3e75	-0.46532026
130	0xbedae097	-0.42749473
131	0x3e687df7	0.22704302
132	0xbed1692a	-0.40900546
133	0xbee06bcb	-0.4383224
134	0xbd1fc3ec	-0.039005205
135	0x3ec77449	0.38955906
136	0xbe83f28f	-0.25770995
137	0x3d8e057b	0.06934639
138	0xbdc29128	-0.095003426
139	0xbdd8797d	-0.10570047
140	0x3e166d95	0.1469024
141	0xbe8ba4f4	-0.27274287
142	0xbe59f802	-0.21286014
143	0xbeec2be9	-0.4612725
144	0xbf0bc44b	-0.54596394
145	0xbdd0a647	-0.10187965
146	0xbee7b7f9	-0.45257547
147	0xbf0ebb60	-0.5575466
148	0xbe86ede6	-0.26353377
149	0xbedda72a	-0.432916
150	0xbecc1f3d	-0.39867583
151	0xbe91c517	-0.2847068
152	0x3eac9a1a	0.3371132
153	0xbf29daf7	-0.6634974
154	0xbedf019a	-0.4355591
155	0xbdf6d87d	-0.120530106
156	0xbf010664	-0.50400376
157	0xbde4d502	-0.111734405
158	0xbe4845ea	-0.1955792
159	0xbe42c40f	-0.19020103
160	0xbf0940bb	-0.53614396
161	0xbe45e880	-0.19326973
162	0x3cc4ff21	0.024047436
163	0xbea32ca7	-0.31870005
164	0x3b8d0186	0.00430316
165	0xbe591549	-0.21199526
166	0xbd325f8d	-0.043548156
167	0xbec40a43	-0.3828908
168	0xbf0b529f	-0.54422945
169	0xbefb7f50	-0.4912057
170	0xbc836a05	-0.016041765
171	0xbf185aa5	-0.5951331
172	0xbe614271	-0.21998002
173	0xbeee46e0	-0.46538448
174	0xbeeac104	-0.45850384
175	0xbeb1defc	-0.34740436
176	0xbf1b97d4	-0.60778546
177	0xbf06b522	-0.52620137
178	0xbed12301	-0.40847018
179	0xbf32b869	-0.6981264
180	0xbe6434b9	-0.22285737
181	0xbeba158a	-0.36344558
182	0xbed934dd	-0.42423144
183	0x3eb108ba	0.3457697
184	0xbef615e0	-0.48063564
185	0xbef037a4	-0.4691745
186	0xbeaf6daf	-0.3426337
187	0xbe3fcce1	-0.18730499
188	0xbe966401	-0.29373172
189	0xbe128482	-0.1430836
190	0xbf0088fc	-0.5020902
191	0xbefcd9f1	-0.49385026
192	0x3e8f5854	0.27997077
193	0x3d76a69c	0.060217485
194	0xbe1d1ec3	-0.15343766
195	0x3da1f3c2	0.07907821
196	0xbe848f22	-0.25890452
197	0xbf0717f4	-0.52770925
198	0xbe472498	-0.19447553
199	0x3e7b6175	0.24548896
200	0xbec01fc4	-0.37524235
201	0xbee55fd1	-0.44799665
202	0xbee4597b	-0.44599518
203	0xbf1906b9	-0.5977588
204	0xbdedea95	-0.116170086
205	0xbe9d1c17	-0.30685493
206	0xbe37f9d9	-0.17966403
207	0xbe5d0d14	-0.2158702
208	0x3eaa6d34	0.3328644
209	0xbdfab174	-0.12240878
210	0xbeee35a5	-0.46525303
211	0xbf28fd39	-0.6601139
212	0xbf276515	-0.65388614
213	0xbefd2ceb	-0.49448332
214	0xbf0882ff	-0.53324884
215	0x3e46467f	0.1936283
216	0x3e3a25b6	0.18178448
217	0xbd842379	-0.06452078
218	0x3dca81f5	0.098880686
219	0xbe176b82	-0.14787105
220	0xbdfe914d	-0.12430058
221	0xbe49493e	-0.19656846
222	0xbef9e575	-0.48807874
223	0xbec3f563	-0.38273153
224	0xbe1756e7	-0.14779244
225	0xbe933870	-0.28753996
226	0xbf2fc49c	-0.6865938
227	0xbefb5687	-0.49089453
228	0xbec01c91	-0.37521794
229	0xbe54795a	-0.20749417
230	0xbef300dd	-0.47461596
231	0xbf0d9d24	-0.553179
232	0x3cf81b6e	0.030286517
233	0xbeb51ded	-0.35374394
234	0xbe97d1a1	-0.29652122
235	0xbe985bdf	-0.29757592
236	0xbed321b7	-0.4123666
237	0xbeb70ddc	-0.3575276
238	0xbed4c3fc	-0.41555774
239	0xbf05b274	-0.5222542
240	0xbd74d3c1	-0.059772257
241	0x3ce9d711	0.028544934
242	0xbe4d7764	-0.20065075
243	0xbf15a8f9	-0.58460957
244	0xbe5bd17e	-0.21466634
245	0xbed4a940	-0.41535378
246	0x3e29f739	0.16598214
247	0xbed18097	-0.4091842
248	0xbda19ac9	-0.07890851
249	0xbf05052e	-0.5196103
250	0xbe96a132	-0.29419857
251	0xbf09808f	-0.5371179
252	0xbf14e80c	-0.58166575
253	0xbf0bc80c	-0.5460212
254	0xbe82eccd	-0.2557129
255	0xbe838573	-0.2568775

layer_2.weight f4 [300, 400]
0	0xbdf68f13	-0.12039008
1	0xbc707dd7	-0.01467844
2	0xbd9c48a5	-0.07631043
3	0x3d099e92	0.03359849
4	0xbbc2b32d	-0.0059417696
5	0xbce1b86f	-0.027553765
6	0xbd3dcc53	-0.046337437
7	0x3c72352b	0.014783184
8	0x3ccd3852	0.02505127
9	0x3cd70fb2	0.026252601
10	0x3d06743b	0.03282569
11	0xbd8f681a	-0.07002278
12	0xbb5a7cab	-0.0033338468
13	0xbd1e449a	-0.038639642
14	0xbcd2a4b6	-0.025713306
15	0xbc4c0e0b	-0.01245452
16	0xbd91c5e8	-0.07117826
17	0xbd606d96	-0.05479201
18	0xbd17f961	-0.03710306
19	0xbd30794e	-0.043084435
20	0xbd65582a	-0.055992283
21	0xbdd962cd	-0.10614548
22	0x3cfda870	0.030964106
23	0xbdb58895	-0.088639416
24	0xbcb08412	-0.021547351
25	0xbd406e5a	-0.04698024
26	0xbd3de781	-0.046363357
27	0xbdb3aedb	-0.087735854
28	0xbdcd542a	-0.10025819
29	0x3c674c76	0.014117351
30	0xbd1c22ee	-0.03811925
31	0xbd8855ea	-0.06657012
32	0xbd449ab6	-0.047999106
33	0xbd6c0b7d	-0.057628144
34	0xbd23b8d0	-0.039971173
35	0x3b82a693	0.0039871424
36	0xbb4ba609	-0.0031074306
37	0xbbb13c55	-0.0054088035
38	0xbc3b1c7e	-0.011420367
39	0xbdf6909a	-0.12039299
40	0xbd31a780	-0.04337263
41	0xbc343967	-0.011000014
42	0xbd8552a1	-0.06509901
43	0x3b74d2b5	0.0037357036
44	0x3d10a853	0.035316776
45	0xbdf165a4	-0.117869645
46	0xbcf3dbb8	-0.029767856
47	0xbcdb0ae1	-0.026738586
48	0x3b6b6b19	0.003592199
49	0xbcfc1250	-0.03077045
50	0xbd6de0df	-0.058075782
51	0xbce69c8c	-0.02815082
52	0xbdb1db79	-0.08684439
53	0xbcf9aeae	-0.030478802
54	0xbc72c32d	-0.014817041
55	0x3b37c006	0.002803804
56	0xbcf87569	-0.030329423
57	0x3bebe357	0.007198732
58	0x3b2c1560	0.0026257858
59	0xbd3c4c99	-0.045971487
60	0xbd92b754	-0.07163873
61	0xbd1a4961	-0.037667636
62	0x3d2f0918	0.04273328
63	0x3c8ebc67	0.017423822
64	0xbccb88b1	-0.024845453
65	0xbb711347	-0.0036785172
66	0x3b9904fe	0.0046697846
67	0xbe10d887	-0.14145099
68	0xbda214b2	-0.079141036
69	0xbdaca84a	-0.08430536
70	0xbdc81e60	-0.097714186
71	0x3d1422a4	0.03616585
72	0x3cd44f4e	0.025916722
73	0xbc1a18ce	-0.009405328
74	0xbd94ba00	-0.07262039
75	0x3d04d518	0.032429785
76	0x3bfc93b9	0.0077080396
77	0xbdb1013e	-0.08642815
78	0xbe0288d2	-0.12747505
79	0x3d242009	0.040069614
80	0x3cd74fa6	0.026283097
81	0xbd19bbd0	-0.037532628
82	0xbd0bfe56	-0.0341781
83	0xbd8c9032	-0.068634406
84	0x3d1a2f88	0.037642986
85	0xbd81ca83	-0.06337454
86	0xbc6ff70e	-0.014646305
87	0x3b4c9995	0.0031219472
88	0x3c195c34	0.009360362
89	0x3d500e1b	0.050794702
90	0xbcb3d013	-0.021949803
91	0xbbd60355	-0.006531159
92	0x3c2b21aa	0.010445038
93	0x3bf549d8	0.0074856095
94	0xbdcf9d5e	-0.10137437
95	0xba427853	-0.00074184424
96	0x3c444821	0.0119800875
97	0xbd8eaf68	-0.0696705
98	0xbd254be2	-0.04035557
99	0xbd505148	-0.050858766
100	0x3d4722e9	0.048617277
101	0xbc69f18b	-0.01427878
102	0xbc755e88	-0.014976151
103	0xbd8408a0	-0.064469576
104	0xbc95665e	-0.018237289
105	0xb9bf39c4	-0.00036473398
106	0x3cc99fd4	0.024612345
107	0xbb8f4b21	-0.0043729697
108	0xbd0ae5b1	-0.033910457
109	0xbd9e469b	-0.07728311
110	0xbdd40374	-0.10352221
111	0xbc9770cc	-0.018486403
112	0xbd15df13	-0.036589693
113	0xbcafb17c	-0.021446936
114	0xbccf5049	-0.025306838
115	0xbdb88bee	-0.090110645
116	0xbbb9f22d	-0.0056746216
117	0xbc5d098c	-0.013491046
118	0xbdb1300d	-0.08651743
119	0xbc741b89	-0.014899143
120	0xbcdd98a4	-0.027050324
121	0xbda3d07d	-0.0799875
122	0xbca05d88	-0.01957585
123	0xbd1ce120	-0.038300633
124	0x3cb823a3	0.02247793
125	0xbc14a034	-0.0090713985
126	0x3ac42d45	0.0014967105
127	0xbd09cea3	-0.03364433
128	0xbd556dc2	-0.052106626
129	0xbd4948e5	-0.049141783
130	0xbd519d4d	-0.051175404
131	0xbc9b466e	-0.018954482
132	0x3cdc046b	0.026857575
133	0xbd91275f	-0.070875876
134	0xbd9dc0cb	-0.07702788
135	0x3c673cf0	0.01411365
136	0xbc22503e	-0.009906827
137	0x3ccbb379	0.024865853
138	0x3b4ebe68	0.0031546596
139	0xbdaa8a8f	-0.08327209
140	0xbcf7ff47	-0.030273093
141	0xbd8f8dae	-0.07009445
142	0x3cb5f2b7	0.022210462
143	0xbd8588c9	-0.0652023
144	0xbd2818dd	-0.041039336
145	0x3b83b9ee	0.0040199673
146	0xbcf79739	-0.030223476
147	0xbd946b82	-0.07247068
148	0xbd8a0444	-0.06739095
149	0xbd4df2b5	-0.05028029
150	0x3c9a82f0	0.018861264
151	0xbdaaee54	-0.08346239
152	0xbd0696c9	-0.032858644
153	0xbd623e5a	-0.055235244
154	0xbd3fb9cc	-0.04680805
155	0xbdd5123b	-0.10403868
156	0xbd971f66	-0.07379036
157	0xbd52d7e1	-0.05147541
158	0xbc49d322	-0.012318404
159	0xbc9777e4	-0.018489785
160	0xbd89185e	-0.06694101
161	0xbd67a8c8	-0.056557447
162	0xbde393cb	-0.11112174
163	0x3cc35215	0.02384285
164	0xbafb8726	-0.0019190058
165	0x3d8fe689	0.07026393
166	0x3c823f4d	0.015899325
167	0xbd8d3586	-0.068949744
168	0xbd42ee3b	-0.047590476
169	0xbdaca296	-0.08429448
170	0x3c99216a	0.01869269
171	0xbc88e6d0	-0.016711622
172	0xbd027e1b	-0.031858545
173	0xbc0daddc	-0.008647408
174	0xbd9494ea	-0.072549656
175	0xbc189945	-0.009313886
176	0x3b7638df	0.003757052
177	0xbd8467f8	-0.06465143
178	0x3d5a6ec6	0.053328298
179	0xbcecdf8e	-0.028915193
180	0xbbf5564a	-0.007487093
181	0xbdb34b3e	-0.08754586
182	0xbcc494b1	-0.023996683
183	0xbd2dfcab	-0.04247729
184	0xbd75e5d1	-0.060033623
185	0xbd9f8b16	-0.077902004
186	0xbdf8687a	-0.12129302
187	0xbdbd9437	-0.09256785
188	0xbb5eedfd	-0.0034016364
189	0x3cc7d239	0.024392234
190	0x3d1c09a1	0.03809512
191	0xbd8da551	-0.06916297
192	0xbdaaf031	-0.08346594
193	0xbdd37c64	-0.1032646
194	0x3cde5d4a	0.027144093
195	0xbcdf2824	-0.02724082
196	0xbc2d89fb	-0.010591979
197	0xbd94e40e	-0.072700605
198	0x3c97150d	0.018442655
199	0xbc4a7a08	-0.012358196
200	0x3a768ba5	0.0009404964
201	0xbd353e58	-0.04424891
202	0xbd33b3dc	-0.0438727
203	0xbd8c3141	-0.06845332
204	0xbdce0f29	-0.10061485
205	0xbbb7a144	-0.005603941
206	0xbda8aa05	-0.08235554
207	0xbc265c3c	-0.010153826
208	0xbd34c9f4	-0.04413791
209	0xbbe89c25	-0.007098692
210	0xbd82f522	-0.063944116
211	0xbd219cf5	-0.039456327
212	0xbc7c4b1b	-0.015398766
213	0xbc74a25c	-0.014931288
214	0xbe0759b7	-0.13217817
215	0x3c36468c	0.011125218
216	0xbc744c80	-0.014910817
217	0xbc872d7f	-0.016501186
218	0xbd07a190	-0.033113062
219	0xbd14aa71	-0.036295358
220	0xbd03e359	-0.032199237
221	0x3aa961b9	0.00129228
222	0xbdc0dc56	-0.09417026
223	0xbde3b1ad	-0.11117873
224	0x3d0b57e3	0.034019362
225	0xbd72795e	-0.059197776
226	0xbc3b7f4c	-0.011443924
227	0xbc7d8aea	-0.015475014
228	0xbda99ea6	-0.08282213
229	0xbd959292	-0.07303347
230	0xbb3885df	-0.0028155965
231	0xbb4f7fe4	-0.0031661922
232	0xbd844829	-0.06459076
233	0xbc8d2cd0	-0.017233282
234	0xbd962d94	-0.07332912
235	0xbd2b45ab	-0.041814487
236	0xbaa98841	-0.0012934284
237	0xbd30727c	-0.04307793
238	0xbd22df95	-0.039764006
239	0x3ae093da	0.0017133907
240	0x3d27fa3a	0.04101012
241	0x3c6ec11b	0.014572407
242	0xbd8a5462	-0.06754376
243	0xbceb5f28	-0.028731897
244	0xbd9d2504	-0.07673076
245	0xbdcde07d	-0.10052583
246	0x3c1f65be	0.009728847
247	0xbc865055	-0.016395727
248	0xbce91d58	-0.028456375
249	0x3cd06697	0.025439544
250	0xbc0fd513	-0.008778828
251	0xb999643d	-0.00029257117
252	0xbd331dd5	-0.043729622
253	0xbdbc75c4	-0.092021495
254	0x3cb3e54b	0.021959921
255	0xbd243fa0	-0.04009974

layer_2.bias f4 [300]
0	0xbc27f802	-0.010252001
1	0xbd558ebd	-0.05213808
2	0xbd5ae6a7	-0.053442623
3	0x3b8f0f84	0.0043658633
4	0x3e328478	0.17433345
5	0x3d96ddcd	0.07366524
6	0xbd7d387d	-0.06182145
7	0xbe3d3977	-0.18478952
8	0xbd973079	-0.07382292
9	0x3d95ba07	0.073108725
10	0x3e8bc4a7	0.2729847
11	0x3ec7ea66	0.3904602
12	0x3f0b139a	0.54326785
13	0x3e562eea	0.20916334
14	0xbd4aaf37	-0.049483504
15	0xbdaad86b	-0.0834206
16	0xbd9d240c	-0.07672891
17	0x3ea3e658	0.32011676
18	0xbc623cfc	-0.013808485
19	0xbcbe9fde	-0.02326959
20	0xbe0579d3	-0.13034754
21	0xbcd34f90	-0.025794774
22	0xbcc89ef2	-0.024489854
23	0xbd382109	-0.04495338
24	0xbcef1ff3	-0.02919004
25	0xbebbcba2	-0.36678797
26	0x3d15d4bd	0.036579836
27	0xbc9d6952	-0.01921526
28	0x3e4a5beb	0.19761626
29	0xbd6f7beb	-0.058467787
30	0xbd0fa442	-0.035068758
31	0xbe122e24	-0.14275414
32	0xbd989547	-0.074503474
33	0x3e665774	0.22494298
34	0xbd88fc77	-0.06688779
35	0xbd42c738	-0.04755327
36	0xbcf32854	-0.029682316
37	0xbdae8533	-0.085214995
38	0xbd6d9eaf	-0.05801266
39	0xbda119dc	-0.078662604
40	0xbd9d346a	-0.07676013
41	0x3c6f82ea	0.014618615
42	0xbd7bab7c	-0.061442837
43	0x3c2e9c7a	0.010657424
44	0x3e246bc2	0.16056731
45	0x3a2c5d18	0.00065751513
46	0x3dacaf69	0.08431894
47	0xbd31a09d	-0.043366063
48	0xbdb6efe5	-0.08932475
49	0x3cc88667	0.02447815
50	0xbd6f634f	-0.058444317
51	0x3c811c16	0.015760463
52	0x3c9543c7	0.018220795
53	0xbdc6b554	-0.09702554
54	0x3e07b563	0.13252787
55	0xbc847415	-0.016168633
56	0xbbc678e9	-0.006056894
57	0xb9f8c23c	-0.00047446962
58	0xbda99f83	-0.082823776
59	0xbd038536	-0.03210946
60	0x3c69f562	0.014279695
61	0xbd7bfaf3	-0.06151862
62	0xbc4b3119	-0.0124018425
63	0xbd966176	-0.07342808
64	0x3c53134a	0.012883017
65	0xbd8c3f76	-0.06848042
66	0x3b3bcaf1	0.0028654898
67	0xbdb85ec6	-0.090024516
68	0x3c6797a7	0.014135278
69	0xbdcc1610	-0.099651456
70	0xbc70387c	-0.014661904
71	0x3eaace3f	0.33360478
72	0xbbdd1efc	-0.0067480784
73	0x3e4b7afc	0.19871134
74	0xbd0707ac	-0.0329663
75	0x3e754a5a	0.23954144
76	0x3e04b18b	0.12958352
77	0xbe270711	-0.1631129
78	0x3e360431	0.17775036
79	0xbd87af32	-0.06625213
80	0x3b8eba39	0.0043556956
81	0x3e07127a	0.13190642
82	0xbd671db7	-0.056424823
83	0x394ed276	0.00019724094
84	0x3d1f12f2	0.038836427
85	0x3cf49371	0.029855462
86	0xbd223a6e	-0.039606504
87	0x3ec8dbbf	0.39230153
88	0xbdbc6e98	-0.092007816
89	0xbb91ec7a	-0.004453239
90	0xbb999c09	-0.0046877903
91	0xbca58eee	-0.020209756
92	0xbd44d39e	-0.048053376
93	0xbd71acd7	-0.059002724
94	0xbd3c1246	-0.045915864
95	0xbd6eaaa2	-0.058268197
96	0x3f037921	0.51356703
97	0xbe264213	-0.16236143
98	0x3e0828ac	0.13296765
99	0xbd2ec2ae	-0.04266613
100	0x3dc5dfb1	0.096618064
101	0xbd1ff9a4	-0.039056435
102	0xbd7e01bf	-0.062013384
103	0xbd1e7fdd	-0.03869616
104	0x3e61aa02	0.22037509
105	0xbce4a6a8	-0.0279115
106	0xbcc13638	-0.023585424
107	0xbb9f307e	-0.0048580756
108	0x3cfa8683	0.030581718
109	0x3ee40b17	0.4453971
110	0xbd88ad97	-0.06673735
111	0x3d6804b9	0.05664513
112	0xbd207814	-0.039177015
113	0xbd8c2aee	-0.06844126
114	0xbdc3718f	-0.09543144
115	0xbdfb8dab	-0.122828804
116	0xba84c61b	-0.0010129841
117	0x3e94c981	0.29059985
118	0xbe00c098	-0.12573469
119	0x3e42b8f1	0.19015862
120	0xbd18e5b6	-0.037328444
121	0xbb1ba0ea	-0.0023747035
122	0xbd8b1f0b	-0.0679303
123	0x3cbe0b6d	0.023198808
124	0xbd0d70d4	-0.03453143
125	0xbce8d96e	-0.028423991
126	0xbd951656	-0.07279651
127	0xbd7ff88a	-0.062492885
128	0xbd10a165	-0.035310168
129	0xbdc4ca91	-0.09608949
130	0x3eaa882e	0.33307022
131	0xbd09f92a	-0.033684887
132	0xbb278c38	-0.0025565755
133	0xbca890e9	-0.020576911
134	0x3c87ff3d	0.0166012
135	0x3e77d676	0.24202904
136	0xbd846df0	-0.064662814
137	0x3cd72f27	0.026267601
138	0x3c4ef894	0.012632508
139	0xbd8f081e	-0.0698397
140	0xbd688020	-0.056762815
141	0x3db72bc2	0.08943893
142	0x3ed78404	0.42092907
143	0xbd11bceb	-0.035580557
144	0xbca17756	-0.019710224
145	0xbdb50fdd	-0.08840916
146	0xbcd41e48	-0.025893345
147	0x3e72fc65	0.23729093
148	0xbd4ffc80	-0.050777912
149	0x3d5ec782	0.054389484
150	0xbdb1b77e	-0.086775765
151	0xbda4dcd8	-0.08049935
152	0x3e1ba435	0.15199359
153	0xbd4d27c6	-0.05008676
154	0xbb9b051d	-0.004730834
155	0xbc5bef6c	-0.013423782
156	0x3f0a6ac2	0.5406915
157	0x3eb37637	0.35051128
158	0xbd74a656	-0.059728943
159	0x3dcbc15d	0.099489905
160	0xbc0fd2aa	-0.008778254
161	0xbd944815	-0.07240311
162	0xbda33979	-0.079699464
163	0x3ce9c3ee	0.02853581
164	0xbd5f3c51	-0.05450088
165	0xbd891782	-0.06693937
166	0xbcb35072	-0.021888945
167	0xbdcd5b2e	-0.10027157
168	0xbd106d20	-0.03526032
169	0xbc35ee3c	-0.011104163
170	0x3ea55920	0.3229456
171	0xbd9c41d3	-0.076297425
172	0xbcfe9f8a	-0.031081934
173	0x3c02aec5	0.007976239
174	0x3e1c7417	0.1527866
175	0xbe0f3932	-0.13986662
176	0x3cf67954	0.03008715
177	0xbd4f60ab	-0.0506293
178	0xbd8704ca	-0.0659271
179	0xbdd68590	-0.10474694
180	0x3d624692	0.055243082
181	0x3f0772dd	0.5290964
182	0xbbbbf937	-0.005736496
183	0xbd85c761	-0.06532169
184	0x3ad86517	0.0016509619
185	0xbdc83f3f	-0.09777688
186	0xbd3cae2d	-0.046064544
187	0x3e1cc859	0.15310802
188	0x3d26b9a3	0.04070438
189	0xbd1f41ab	-0.038880985
190	0xbd998a9d	-0.074971415
191	0xbb9bd3ff	-0.0047554965
192	0xbc9f6579	-0.019457566
193	0xbd827183	-0.06369307
194	0xbbebe62b	-0.007199069
195	0x3bd8181d	0.0065946714
196	0xbd556da2	-0.052106507
197	0xbd7c99b6	-0.061670028
198	0xbdc77b32	-0.097402945
199	0x3bdcbfed	0.0067367465
200	0x3e493305	0.19648369
201	0x3de21327	0.11038809
202	0x3dbd596f	0.09245574
203	0xbd148eb3	-0.0362689
204	0xbd57bd2f	-0.052670654
205	0xbc8ec943	-0.017429953
206	0x3ed49773	0.41521797
207	0xbdb34f26	-0.08755331
208	0xbd382d92	-0.044965334
209	0xbdb10c04	-0.0864487
210	0xbc70aa4b	-0.0146890385
211	0xbd07ee2e	-0.03318613
212	0xbd1ef491	-0.038807455
213	0x3ba37863	0.0049887164
214	0x3baa785b	0.005202336
215	0xbe4ab952	-0.19797257
216	0xbc3e82a8	-0.011627831
217	0xbd53a24d	-0.051668454
218	0xbd51ab8a	-0.051188983
219	0xbd7a3c75	-0.061092813
220	0xbd5a3a2c	-0.053278133
221	0xbdb2eb55	-0.08736292
222	0xbdc43c51	-0.09581817
223	0x3b54def1	0.0032481516
224	0x3c85d307	0.016335977
225	0xbd0ec489	-0.0348554
226	0x3e0e48bb	0.13894932
227	0x3c1b19d2	0.009466605
228	0xbca0f429	-0.019647675
229	0xbcdf955c	-0.0272929
230	0xbdb46ae7	-0.088094525
231	0xbd50f99d	-0.0510193
232	0x3d08e299	0.033419225
233	0x3f0d829c	0.5527742
234	0xbd811643	-0.06303074
235	0x3e0a7159	0.13519801
236	0x3c6b62df	0.014366834
237	0x3d373e2a	0.04473702
238	0x3cfdf008	0.030998245
239	0xbda1b37e	-0.078955635
240	0xbc51a28e	-0.012795104
241	0x3f38a246	0.7212261
242	0x3ef3ca35	0.4761521
243	0xbe1a7d83	-0.15086941
244	0xbd9e90e8	-0.077424824
245	0xbd62dcdf	-0.05538642
246	0xbdbdf166	-0.09274559
247	0xbd735c79	-0.05941436
248	0x3cdbb0eb	0.02681776
249	0x3cab0d1f	0.02088028
250	0x3e6bb049	0.23016466
251	0xbcaaaa04	-0.020833023
252	0xbcc37d73	-0.02386353
253	0xbda2ba5a	-0.079457
254	0xbcb93418	-0.022607848
255	0x3e48696f	0.1957147

layer_3.weight f4 [6, 300]
0	0x3d9c40ea	0.07629569
1	0x3b9ac9e5	0.0047237747
2	0x3c34a1ac	0.011024874
3	0x3bf3c8c3	0.007439704
4	0xbe391266	-0.18073425
5	0x3ccb76fd	0.024837011
6	0x3d3a35b4	0.04546137
7	0x3e2a3328	0.16621077
8	0x3d10a9d2	0.035318203
9	0xbd003bed	-0.03130715
10	0xbe36fcd8	-0.1786989
11	0xbe97ab5d	-0.29622927
12	0xbe04e0aa	-0.12976328
13	0xbb05424a	-0.00203337
14	0xbd25832f	-0.04040831
15	0x3c7bf780	0.015378833
16	0x3bc7c528	0.006096501
17	0xbef58348	-0.47951722
18	0x3d3f21ee	0.046663217
19	0x3c156b85	0.009119873
20	0x3d8f1713	0.06986823
21	0xbd1423e8	-0.036167055
22	0x3c33a296	0.0109640565
23	0x3c26b9be	0.01017612
24	0xba569490	-0.00081855897
25	0xbee6e3b4	-0.450956
26	0x3d17d3ff	0.03706741
27	0x3ce05b10	0.027387172
28	0x3d806eb7	0.06271117
29	0x3d5ba745	0.053626318
30	0xbc86caa5	-0.01645405
31	0x3f2b65c7	0.66952175
32	0xbc73b58e	-0.014874829
33	0x3e3415b9	0.17586412
34	0x3c926a34	0.017872907
35	0x3cc2e846	0.023792397
36	0x3bf61bc7	0.0075106355
37	0x3c9c7e14	0.019103087
38	0xbd00f36e	-0.031482153
39	0xbcf1868f	-0.029483108
40	0x3b91f013	0.004453668
41	0x3d766e7b	0.060163956
42	0x3d2cdead	0.042204548
43	0x3d0f5919	0.03499708
44	0xbe803d51	-0.2504678
45	0xbcfd8ed2	-0.030951891
46	0xbd0dd58c	-0.034627482
47	0x3d1c8fd9	0.03822312
48	0xbd1b5204	-0.037920013
49	0x3ca5e5e2	0.020251218
50	0x3d70f33d	0.05882572
51	0x3d25bf97	0.040465917
52	0xbebd79ec	-0.37007082
53	0x3bc015ec	0.0058619883
54	0xbe0510bb	-0.12994663
55	0x3cbb1da4	0.022841282
56	0x3d7278e2	0.059197314
57	0x3d2f4ef6	0.042799912
58	0xbe70a207	-0.23499309
59	0xbb9bafac	-0.0047511663
60	0x3d200bc9	0.03907374
61	0x3c5322b7	0.012886695
62	0xbccba517	-0.024858994
63	0x3d0a2a2d	0.03373163
64	0x3d42f113	0.047593188
65	0x3ca790b5	0.020454744
66	0x3c991760	0.018687904
67	0xbcb6935a	-0.02228706
68	0x3d1ef559	0.0388082
69	0xbcf78819	-0.030216264
70	0xbd19d39a	-0.037555315
71	0xbe031912	-0.12802532
72	0xbc8f7e27	-0.017516209
73	0xbd82f696	-0.06394689
74	0xb882fc7c	-6.245912e-05
75	0x3e7c34ba	0.24629489
76	0x3e3b7727	0.18307172
77	0xbcbdfc46	-0.023191582
78	0xbe13af9d	-0.1442246
79	0xbd2d4f9e	-0.042312257
80	0xbd174c7b	-0.03693817
81	0xbddce743	-0.10786297
82	0xbcbceb6c	-0.023061477
83	0x3d488ed4	0.048964337
84	0xbde1f0f5	-0.11032287
85	0xbe98f8b4	-0.29877245
86	0xbc3c9af1	-0.01151155
87	0xbe6c0ecb	-0.23052518
88	0x3cff9af9	0.031201826
89	0x3a04a837	0.00050604664
90	0x3bbdc765	0.005791592
91	0xbcbf6ec0	-0.02336824
92	0xbca90775	-0.020633439
93	0x3e18fce7	0.14940225
94	0x3d540b98	0.05176887
95	0xbce56bdd	-0.028005535
96	0xbe4a806c	-0.19775552
97	0xbc128cb1	-0.008944676
98	0xbce88326	-0.028382849
99	0x3d387882	0.0450368
100	0xbe056b4a	-0.13029209
101	0x3cd2ac90	0.02571705
102	0xbc85318c	-0.016258977
103	0xbd0eda28	-0.03487602
104	0xbe103a99	-0.14084853
105	0x3cd52170	0.02601692
106	0x3d5ee78c	0.05442004
107	0x3d5b9e40	0.053617716
108	0xbe2707ff	-0.16311644
109	0xbe675037	-0.22589193
110	0xbd0ed0fd	-0.034867276
111	0x3c6b4ec8	0.014362045
112	0xbd08dfd8	-0.0334166
113	0x3dc60850	0.09669554
114	0xbd586ef5	-0.052840192
115	0x3f50529d	0.8137606
116	0x3db63f45	0.088987865
117	0x3e98ec26	0.29867667
118	0x3d5646c2	0.052313574
119	0xbde98545	-0.11402372
120	0x3d9ba88c	0.07600507
121	0x3c69a8f7	0.014261476
122	0x3cde2441	0.027116897
123	0xbdcf0e58	-0.10110158
124	0xbbcd3113	-0.0062619536
125	0x3dab80e6	0.08374195
126	0x3d2fbeea	0.04290668
127	0x3cbd3a76	0.023099165
128	0xbd033073	-0.032028627
129	0xbdb4d514	-0.08829704
130	0xbe4220ff	-0.189579
131	0x3e03e84d	0.12881584
132	0x3b46ae91	0.0030316452
133	0xbcb4409a	-0.02200346
134	0x3cbd09e0	0.023075998
135	0xbe53cc2d	-0.20683356
136	0xbbaa0bf9	-0.0051894155
137	0x3dc75fae	0.09735046
138	0x3cecba0d	0.02889731
139	0xbc35d6f0	-0.011098608
140	0x3d979a19	0.07402439
141	0xbe6dcfed	-0.23223849
142	0xbdf09e59	-0.117489524
143	0xbd2f03c5	-0.042728204
144	0x3d59deaf	0.053190883
145	0xbb7d94f7	-0.0038693526
146	0x3d1a891f	0.037728425
147	0xbdb3b6ec	-0.08775124
148	0x3d607b56	0.054805122
149	0xbdc1a247	-0.0945478
150	0xbcac932f	-0.021066276
151	0xbd76a63b	-0.060217123
152	0x3d1993f8	0.03749463
153	0xbbc1ac63	-0.0059104427
154	0xbc2e0a1e	-0.010622529
155	0xbcc07e37	-0.023497684
156	0xbe9e16d2	-0.30876786
157	0x3f312b7e	0.6920699
158	0x3d67e0c6	0.056610845
159	0xbdfc345a	-0.12314673
160	0xbc3eb88b	-0.011640678
161	0xbca66561	-0.020312013
162	0x3d7fec0f	0.062480982
163	0x3f008111	0.5019694
164	0x3d8ce9af	0.06880509
165	0xbabd4e71	-0.0014442933
166	0x3c85407e	0.016266104
167	0xbdbd795d	-0.09251664
168	0x3d545975	0.051843125
169	0x3d62c6d7	0.05536541
170	0x3e83c064	0.2573272
171	0xbbd4397f	-0.0064765806
172	0x3e39f332	0.18159178
173	0xbcf8c2eb	-0.030366382
174	0xbd0a65ff	-0.033788677
175	0xbcc2174d	-0.023692751
176	0xbc9c75da	-0.019099165
177	0x3d7579fc	0.059930786
178	0x3b27c285	0.002559812
179	0xbb8250af	-0.0039769034
180	0xbdda2b1b	-0.10652753
181	0xbe843f47	-0.25829527
182	0xbcc1ace6	-0.023642015
183	0x3e562ca3	0.20915465
184	0x3cd3ea26	0.025868487
185	0x3d68f2cd	0.056872178
186	0xbd3305d8	-0.043706745
187	0x3e171dd7	0.14757477
188	0x3d89d1d6	0.06729476
189	0x3d786244	0.06064059
190	0x3d88938f	0.066687696
191	0x3ca74132	0.02041683
192	0x3d0a09f7	0.03370091
193	0xbcd20289	-0.025635974
194	0x3c3c4aa4	0.011492405
195	0xbc16007c	-0.009155389
196	0xbc4d96c5	-0.012548153
197	0xbd198f6c	-0.037490293
198	0x3c27abd8	0.010233842
199	0xbc1cfc7e	-0.009581683
200	0xbdb72b5c	-0.08943817
201	0xbe03950a	-0.12849823
202	0xbd97c11f	-0.07409882
203	0xbbdf2ab8	-0.0068105124
204	0x3d055172	0.032548375
205	0x3d9b8981	0.07594586
206	0xbc02ef4e	-0.007991625
207	0x3cb3c52e	0.021944609
208	0xbc603e0a	-0.013686666
209	0x3d5d7ca8	0.05407396
210	0x3d6dbb7b	0.058040123
211	0x3d0c133c	0.03419803
212	0x3d10b9cb	0.035333436
213	0x3d2c122e	0.042009525
214	0x3d68fc5e	0.0568813
215	0x3ea2e95f	0.31818673
216	0x3d511fc2	0.051055677
217	0xbdd2473b	-0.102674924
218	0x3c64b934	0.0139601715
219	0x3cb173b4	0.021661617
220	0x3d7f44f4	0.06232162
221	0x3b3c4382	0.0028726761
222	0x3cd48240	0.025941014
223	0x3d6b77ff	0.057487484
224	0x3dc8d8e6	0.09806995
225	0x3d0eea4e	0.03489142
226	0x3dc3de90	0.09563935
227	0xbd626ccf	-0.05527955
228	0x3d67c2a1	0.056582097
229	0x3b8c6f33	0.004285717
230	0x3d7fc5d3	0.06244452
231	0xbc24793b	-0.010038669
232	0x3d22198d	0.03957515
233	0x3d8a1e98	0.067441165
234	0xbd209c89	-0.039211784
235	0xbebe4822	-0.37164408
236	0xbc625fbc	-0.01381677
237	0xbcab77fd	-0.020931238
238	0x3d093769	0.03350011
239	0x3d05df44	0.032683626
240	0xbbc18900	-0.0059062243
241	0xbe6e39dc	-0.23264259
242	0xbec9d9bb	-0.39423928
243	0x3d5f80ff	0.05456638
244	0xbd3b66ac	-0.045752212
245	0xbd323b57	-0.043513622
246	0x3d88be23	0.06676891
247	0x3af11f8c	0.0018396243
248	0x3ba1045c	0.0049138498
249	0x3d177edc	0.036986217
250	0xbed4127f	-0.4142036
251	0x3d987dd2	0.07445873
252	0x3cc0d1ed	0.0235376
253	0x3e506a39	0.2035302
254	0x3c688af2	0.014193283
255	0xbdf025c9	-0.11725957

layer_3.bias f4 [6]
0	0xbe079ec7	-0.13244162
1	0xbd822177	-0.06354039
2	0x3db6a1fa	0.08917613
3	0xbdb003f2	-0.085945025
4	0x3e0a1bb5	0.13487132
5	0x3def5506	0.11686139
